model/GCNmodel_udata_carea.pth (torch_old, 136187 bytes, 6 tensors)

SC1.Theta1 f4 [18, 100]
00000000: 878b 82bc e5bc 0abd c130 5f3c 5558 99be
00000010: 627f 1ebd 3fd2 7fbc bc61 85bd fcfd 123e
00000020: e5ae 9e3d 375c 723d a074 c8bd 94b0 123d
00000030: 650a af3c 1ef2 aabf 7f1e 023e e5f1 24bd
00000040: d449 e23c 8f62 863d 0c63 83ba 63a9 c6bd
00000050: 9199 663c f750 903d dc4a 68bd dbdb 47bd
00000060: fb1d d33d 48fe 2ebc b69c d03c 6e89 2f3e
00000070: 39c7 5a3d c227 96bd 3081 7c3c ac0b 783d
00000080: a422 45bc 4ff1 793d c723 c63d 9c65 a33d
00000090: 4851 633d 3ac7 35bd 0066 5fbb a177 a7bc
000000a0: 8d72 5b3c 66e2 76bd e9cd b93c 5174 97bd
000000b0: f6ff 0e3c d90b a7bd f816 823c 75c3 86bd
000000c0: f7fc 3fbd d57e 1cbd 3019 bebd 8c2d 48bd
000000d0: dc16 a73c b53b c5bf a0e9 debc fa88 2a3d
000000e0: e2d2 b53d 3183 44bd b1f2 3abf 6c4b a8bb
000000f0: bf76 b93d 14aa a3bd 11c2 2b3e 1036 173e
00000100: 12d9 d03d 6c8c 8a3d 9a78 f4bc 82fb 493c
00000110: d20a 87bf 1091 a6bc 417a 4a3d 5f97 da3c
00000120: 5665 343c 6812 483c 2774 3a3c cbeb 07bf
00000130: b65a b8bf 89fe a73d 010b b2bb de3c d33d
00000140: a561 ac3c 039b 4f3d 68ed b0bc da8d 8c3d
00000150: de03 bd3c db0b dc3c e2a1 0ebd 8759 f43d
00000160: 1388 e53b 4647 043d b8af 1f3e 318d a93b
00000170: b054 0c3d 0936 b23d 80bb 383e 6d2c 973d
00000180: 4341 a53d ba79 c6bd 9b0a 443e b9a3 333c
00000190: f4af 90bd bd24 863d bfed a5bd 9a3e 77bd
000001a0: 675c 51bc 422c 91bd d8fc 0f3e 85ac 95bd
000001b0: e7c0 05bc 28d6 003e 8930 c83d 937b 5dbd
000001c0: e8d3 343c d992 70be a575 8ebd ec13 cabd
000001d0: 273c 023b 674a abbb 7a42 b13c 65e1 e93d
000001e0: 664b a23d 6f21 86bd b4f1 d33d ce12 35bd
000001f0: 3d9f 663e e1dd a13d 1852 af3d 16c1 0b3d
00000200: e910 193e 2f0c d53c a2ec 0b3e eb64 0cbd
00000210: b628 a43d 6552 e1bb 7c53 1d3e 3526 e4bc
00000220: cdda d73d 4ec3 3b3d 5b26 c4bd 17d8 4f3b
00000230: d6ca 81bd a3e9 61b9 ba7f 90bd 8708 7bbd
00000240: 87aa 30bd d27e 7e3d 53de 33bd cc10 7e3d
00000250: ec87 8a3b 7491 c83d 34d3 013e 4469 2ebc
00000260: e489 7dbd 290a c93e c0e3 95bc 8dbc 813c
00000270: 591a d43d b6d2 b83d b37b ae3c 5db8 c0bc
00000280: 835c 593d 3158 863d 5f97 1a3c f257 093d
00000290: 47ab dfbd ae78 a23d 6dbc a33d 4d33 c23d
000002a0: bacc 1bbe 63f5 5abe 2def 983d 369c 87bc
000002b0: 254e 7dbd 2d7b 933d e89d 02bd c603 1bbf
000002c0: b139 db3d 23fe 213c f042 e63c bcd2 c43d
000002d0: 5d94 1dbd 30b8 a53d de7f 77bd 83b4 c53d
000002e0: bd2c 633d 4592 43bc 7121 d93c c3d7 3d3d
000002f0: f43f 003d ff28 243e 5ec7 1b3d 0322 12be
00000300: e1ed 3bbd 5461 8e3c e82a 37bc 625a cd3d
00000310: be70 423d 01cf 873d 4329 83bd 9f6a fa3b
00000320: 8b7e dc3c 1f03 e0bb 75ba d1bd 96d8 073e
00000330: 08ec f83a 6a98 883d 98eb 2f3e c9bc 1dbd
00000340: d783 613c 0a78 113d 3725 ed3c a719 c3bc
00000350: 66d6 883d c847 99be e363 363d ed87 7d3d
00000360: 0d76 ba3c 213c e4bb 6a05 80bd 919c 9f3d
00000370: e593 07bb 0293 4c3d 0f7c f43c 2ce7 6a38
00000380: a2bd 983e 211f 183d dc85 7b3d 3955 1bbc
00000390: 4997 253c 6a30 8cbd 6866 0a3e 23bf dd3d
000003a0: 6cfd 9e3d 455c 86bd 71c0 fd3c de24 1d3d
000003b0: fcff 313d 0460 60bc 7cde 80bd ff9f 0a3d
000003c0: c4ab 52bd 6850 8bbd cbcd 683d f0c8 aa3d
000003d0: d7ec b03d f286 9fbd 16e4 343d 6c23 9b3d
000003e0: 72af c6bd e973 923b f9ce eb3c 547a 2ebd
000003f0: 0f3d d33d 9d38 a43e 084a a8bc 4b3d 88bd
-0.015935672 -0.03387155 0.013622464 -0.29950204 -0.0386957 -0.015614091 -0.06512782 0.143547
0.07748202 0.059169974 -0.097878695 0.03581293 0.021367261 -1.3355138 0.12706946 -0.04026975
0.027623095 0.06561767 -0.0010024025 -0.09700277 0.014074699 0.07046693 -0.056712016 -0.048793655
0.10308453 -0.010680743 0.02546535 0.17142269 0.05341265 -0.07331802 0.01541166 0.060558006
-0.012032185 0.061021145 0.09674793 0.07978365 0.055497438 -0.04437945 -0.0034087896 -0.020442786
0.01339401 -0.060274504 0.022681193 -0.073952325 0.008728018 -0.08156557 0.015880093 -0.06580249
-0.046872105 -0.038206894 -0.09282148 -0.048871562 0.020396642 -1.5408846 -0.02721101 0.041634537
0.08878113 -0.047976676 -0.7302657 -0.005135944 0.09055852 -0.07991424 0.16773249 0.14766717
0.10197653 0.067650646 -0.029842664 0.012328031 -1.0550177 -0.020332843 0.049432997 0.026683507
0.0110104885 0.01221142 0.011380232 -0.53094167 -1.4402683 0.082028456 -0.0054334407 0.10314344
0.021042654 0.05068494 -0.02159758 0.068629935 0.023073133 0.026861122 -0.034822352 0.119311385
0.0070047467 0.032294534 0.15594375 0.005174302 0.03426045 0.08701713 0.18040276 0.073815204
0.08069088 -0.09691186 0.1914467 0.0109643275 -0.070648104 0.06549976 -0.08101987 -0.060362436
-0.012778378 -0.0708852 0.14061296 -0.07308296 -0.008163667 0.12581694 0.09774882 -0.054072928
0.0110368505 -0.23493518 -0.06956033 -0.09867081 0.001987228 -0.0052273753 0.021638144 0.11419944
0.07924537 -0.06549346 0.103488356 -0.044207387 0.22521682 0.07903648 0.0856058 0.034119688
0.14947857 0.026006786 0.13664487 -0.03427593 0.080155775 -0.0068762773 0.15363878 -0.02785025
0.1053978 0.045840554 -0.09577628 0.0031714493 -0.06337516 -0.00021544709 -0.07055612 -0.06128743
-0.043131378 0.062132664 -0.043913197 0.062027737 0.004227629 0.09793368 0.12678224 -0.0106452145
-0.06189908 0.39265564 -0.018297076 0.015836978 0.10356588 0.09024565 0.021299219 -0.023525411
0.05306674 0.0655979 0.009435504 0.033531137 -0.109213404 0.07933174 0.07994924 0.09482441
-0.15214816 -0.2138267 0.07467494 -0.01655398 -0.061842103 0.07201228 -0.031888872 -0.6055263
0.10704363 0.009887251 0.02810809 0.09610507 -0.03847157 0.080917716 -0.060424678 0.096535705
0.055462588 -0.011936729 0.026505204 0.046348345 0.03131099 0.16031264 0.03803193 -0.14270787
-0.045881156 0.017380394 -0.011179663 0.10027005 0.0474708 0.0663128 -0.064043544 0.0076421048
0.02691581 -0.0068363096 -0.10240642 0.13266215 0.0018991241 0.06669696 0.17179716 -0.038510118
0.013764343 0.03551487 0.02894841 -0.023815943 0.06681518 -0.29937577 0.044528853 0.061897207
0.02276137 -0.0069651757 -0.06251033 0.077935345 -0.0020687517 0.049944885 0.029844312 5.6005243e-05
0.29832178 0.03713906 0.061406955 -0.009480768 0.01010687 -0.06845172 0.13515627 0.10827472
0.0776318 -0.06560568 0.030975552 0.038365237 0.043457016 -0.013694767 -0.062924355 0.03384399
-0.05143334 -0.06802446 0.056836884 0.08339107 0.086389236 -0.07789411 0.044162832 0.075751156
-0.09701432 0.004469384 0.028785216 -0.04259713 0.103143804 0.32074443 -0.020543113 -0.06652316

SC1.bias f4 [100]
00000000: b0bd 923d f4a4 d4bc 4023 923d d186 963d
00000010: ebc5 5c3d d4de bdbb 6bd3 02bd 7bdd 503d
00000020: 6c35 043a 33f8 cbbc 614d 803c 38b5 683b
00000030: cac2 3bbd 151c 493d d98c eebc eadc 9b3d
00000040: 39cf 763d 8d01 703d 8164 4a3d 9d64 c83a
00000050: f682 dcbb a041 f5bc a366 9c3d 32de 633d
00000060: 89c2 3b3a a087 2f3d 9b19 c43d 1309 6bbd
00000070: 285e b23c ec9a a93c ad4c 023a e6ca 7d3c
00000080: 23dd a53d b824 863d 5b01 82bd 0aaf 29bd
00000090: 8b8c 8d3a c4c4 ac3d 155d 95bd f366 393d
000000a0: c745 443d ca2e 253d 1868 5f3d 31fc b93c
000000b0: 7d02 343c b955 183d c874 99bd ac29 413d
000000c0: c797 803d 998e 613d 1c29 1c3d 34e2 133a
000000d0: 4913 953d 1a89 a63d 0a0c 4bbd f516 a73d
000000e0: 1dce 7d3c 3f5b c03c 7bff 7c3c 98ba 2a3b
000000f0: b363 ab3c 3779 193c c348 213a 41f7 cfbb
00000100: d4be a0bb d777 c83d 88ec a43d 79ff f5bb
00000110: af0a 683d 6bfe 723a 9361 bbbc 030b a13d
00000120: 19f9 423c 050b 87bd 685d 923c 7a67 9e3d
00000130: 77e3 ec3c c308 a7bd 19d7 aabb b5b5 193d
00000140: e220 373a 91b2 253d 711d 743d da9e 77bd
00000150: 8c3d aabd 2849 243c bde5 3e3d 2fad a3bc
00000160: af8f 7a3d c862 45bc d922 6ebd 715d 24bb
00000170: 77d1 973b 338e cd3c 3e28 43bd a742 0e3a
00000180: 1434 ea3c a085 28bd 6767 ef3c 69a2 0c3d
0.07165086 -0.025957562 0.0713563 0.07349933 0.053899687 -0.0057943854 -0.031939905 0.05099247
0.0005043361 -0.024898624 0.015661897 0.0035508405 -0.045840062 0.049099047 -0.029119896 0.076104954
0.060256217 0.05859523 0.049412254 0.0015288774 -0.006729479 -0.029938519 0.07636764 0.055631824
0.0007162472 0.04285395 0.09575196 -0.0573817 0.021773413 0.020703755 0.0004970532 0.015490269
0.08098819 0.06549972 -0.06347915 -0.041426696 0.0010799331 0.084359676 -0.072931446 0.045264196
0.047918107 0.040327825 0.05454263 0.022703262 0.010986921 0.037191126 -0.074929774 0.047158882
0.06278949 0.055067632 0.038125142 0.0005641312 0.07279069 0.08131619 -0.04957203 0.081586756
0.015491036 0.02348101 0.015441771 0.002605116 0.020921564 0.009367279 0.0006152505 -0.0063466136
-0.004905561 0.09788483 0.08052927 -0.0075072614 0.056650814 0.00092694786 -0.022873675 0.078634284
0.01190021 -0.06593899 0.017866805 0.0773458 0.028917057 -0.08155968 -0.00521363 0.037526805
0.0006985796 0.040453497 0.05959839 -0.060454227 -0.083125204 0.010027207 0.046605814 -0.019980041
0.061172184 -0.012047477 -0.058138702 -0.002508011 0.0046331245 0.02509222 -0.0476458 0.0005426802
0.028589286 -0.04114306 0.02922411 0.034334574

SC2.Theta1 f4 [300, 100]
00000000: ad79 753d 470a b1bd 7517 1b3c 230a 94bd
00000010: 11ee 913c cbdb 843d c394 44bd 53b1 ccbd
00000020: 077a 493d b9be 1e3d 532d 933d 40f6 a7bd
00000030: 3521 573b 6267 7d3d 54fe d8bb df9d 88bd
00000040: a293 bc3d b7ad 1c3d 2ee8 52bc dfb6 a93d
00000050: 8f0b 76bd 794b 853d a31c 84bd a6bc 533d
00000060: ca1c afbd 44fb be3d 593d 813d 33cf 2d3d
00000070: 9d9f 8a3c 5816 9bbc c357 94bd 517e 783d
00000080: 68a4 83bd 2684 a93d 5886 54bd c5ba 12bd
00000090: 42d7 4bbd 7c81 383d 8119 babc a5ce e4bd
000000a0: 4324 8a3d 808b e43a 1b96 d63c e01e 78bc
000000b0: 9353 30bc 9a01 1e3d 9dc7 853c bde1 5fbd
000000c0: b7b0 fb3b 8b63 17bd 06cd b93c 00a7 63bd
000000d0: 30c3 953d 8c4c 913d 24af d43b 53a1 6abc
000000e0: 0c17 7d3d 22c6 82bd 6431 11bd c14e a93c
000000f0: 633b 25bd c475 733d 2ab1 7dbd e828 a0bd
00000100: 92f1 79bd 60fb 1ebe d50f c1bd a6ad fc3a
00000110: 34e6 a23d 092f 16bd 355a 19bd a960 d2bd
00000120: ff11 fa3c 7777 f13c 1c13 b0bd d4a3 bb3d
00000130: 0617 233d ba51 84bd e792 873d f28c 2e3a
00000140: c13a b8bd 3f2b 8fbd b4bf e5bc abd9 5cbd
00000150: d053 8fbd 7a84 023d 72b4 aabd becf c83d
00000160: 9054 4d3a 9758 a43d 6c28 e23d 39d1 58bd
00000170: 2cec e43d 1a1a 143d df26 d1bc f7c8 b23d
00000180: bc30 773b 0822 9b3d ebef e53c df44 903d
00000190: a4e5 a93c d6cd 80bd d674 b93d 64bb 743e
000001a0: ae0b 4cbd d680 0dbd 2c20 cb3c 2b49 9e3d
000001b0: 1607 cb3a 4f8e e7bc b16f 50bd abe0 98bc
000001c0: b695 94bd 4c44 ba3c 95ed 92bc d21f 1dbd
000001d0: abcb ccbd 0e4a 6dbc 37b0 27bd dbde 913d
000001e0: 1b1b 903c fa3c 2a3d 4438 afbd 9721 2ebd
000001f0: 7dd8 71bd ad8b 10bd b167 57bd 0040 0a3d
00000200: e131 77bd 4655 8fbd a793 9ebd 3fc8 8f3c
00000210: 8c18 de3d 15b8 623b 7ee6 adbd 74a4 8cbd
00000220: 1b7d 1e3d 2775 a33c 2914 b33d 19be 053d
00000230: 6490 563d 0f3e c33d 0f89 813c f6e1 6dbd
00000240: 1196 92bd 1237 033d 5834 9e3d 400a 41bd
00000250: b793 a9bd 72f2 863d f136 c03c cf19 abbc
00000260: 4aae 8abd dd30 99bd 514f 74bc 1527 31bd
00000270: 8fa1 57bd 5796 a73d ec82 c43c 4d49 423c
00000280: efd2 e4bc 47ec 2ebc 8a30 0d3a 1881 e83d
00000290: 0bb5 363d 33d4 b73d 53ba 6ebd 0162 a7bd
000002a0: d5ee 8dbd 561d d03a 6add a53d c14c 5bbd
000002b0: f4b7 d93d 8fd0 eb3c b202 c03d b0df 2cbb
000002c0: 72c5 b03d e508 75bd 2e0d c9bd 93b6 ad3d
000002d0: 2989 78bd 7a8a c0bc 2145 b63d ed25 99bd
000002e0: b66b 47bd f958 a1bc a8e9 4ebd b5c1 5b3d
000002f0: b650 90bd c7ca 3fbc b58a 3c3c a7af 16bd
00000300: 35bf 573d 970b d4bc 0668 983c 3cea e7bd
00000310: c754 7d3d ea46 c63d b8ae 0c3d d0a8 d8bb
00000320: d02d adbd 0b63 81bc ac23 cc3c d490 173e
00000330: 3ad6 f3bc 1eec 583d fee1 9dbd 48c2 8f3c
00000340: fa32 77bd 1b83 163d 6ac5 cabd 7490 80bd
00000350: 5bbc 603d b01a ad3b ff77 c13d 2256 05bd
00000360: 514d aebd f4df b7bd fd29 3bbd f045 2c3c
00000370: 3e6f 973d 306b 2d3c e6d8 683c c8bb bc3c
00000380: 942c 8cbd 438f bdbd dc19 cc3d c19a d4bc
00000390: 75ff 753d 4474 a83d 5063 20bd 132b 233d
000003a0: 3840 bc3d d546 30bd de97 633d add5 6bbd
000003b0: b33a 40bd dea6 21bd 26ee af3c 95ac 413d
000003c0: b5de 923d 003f 433d a00d ccbd f199 a1bd
000003d0: 441a 10bd 63aa 9b3d 9f45 533c 008b af3c
000003e0: f948 963d 044b 373d 3082 86bd fb98 7b3d
000003f0: f3aa 2fbd f291 fdbc 4281 583d 3a20 f53c
0.059930492 -0.086445384 0.009466042 -0.07228496 0.017813714 0.06487235 -0.047993433 -0.099947594
0.04918864 0.038756106 0.07186379 -0.08201265 0.003282619 0.06186617 -0.006622115 -0.066707365
0.09207846 0.038251605 -0.012872739 0.08286833 -0.060069617 0.06508536 -0.064507745 0.05169358
-0.08550413 0.09325269 0.06310529 0.04243393 0.016921813 -0.018931553 -0.07243302 0.06066734
-0.064278424 0.082771584 -0.051885933 -0.03582265 -0.049765833 0.04504536 -0.02271724 -0.11172227
0.067451976 0.0017436594 0.026194623 -0.01514408 -0.010762113 0.038575746 0.016330535 -0.05465864
0.007680978 -0.036960166 0.02268077 -0.055579185 0.0731262 0.07094678 0.006490605 -0.014320689
0.061789557 -0.06385447 -0.035447493 0.020667436 -0.04033984 0.059438482 -0.061936535 -0.07820302
-0.061021395 -0.1552558 -0.09426848 0.0019277825 0.07954064 -0.03666595 -0.037439544 -0.10272343
0.03052616 0.02947591 -0.08597395 0.09162107 0.03981688 -0.064609006 0.06619816 0.0006658576
-0.089955814 -0.069906704 -0.028045513 -0.05391852 -0.06998408 0.03186462 -0.083351985 0.09805249
0.000783273 0.0802471 0.11042866 -0.052933905 0.11177859 0.036157705 -0.02553123 0.08729737
0.0037718257 0.0757485 0.028068503 0.07044386 0.020739384 -0.0628926 0.09055488 0.23899609
-0.049815826 -0.034546696 0.024795614 0.077287994 0.0015489783 -0.0282661 -0.050887767 -0.018661818
-0.072551176 0.022737645 -0.017935554 -0.038360424 -0.09999784 -0.014482988 -0.040939536 0.071225844
0.01759105 0.041562058 -0.08555654 -0.042512503 -0.05904435 -0.035289455 -0.052589122 0.03375244
-0.060350303 -0.069986865 -0.07743006 0.01755154 0.10844526 0.0034594585 -0.084912285 -0.068673044
0.03869353 0.019953324 0.087440796 0.032651994 0.052383795 0.09533321 0.015812425 -0.05807682
-0.07157529 0.03203494 0.077248275 -0.047128916 -0.082801275 0.065892115 0.023463698 -0.02088633
-0.06771524 -0.07480023 -0.014911489 -0.043250162 -0.05264431 0.08182972 0.02398821 0.011858297
-0.027932612 -0.01067645 0.0005385956 0.11352748 0.04460625 0.08976021 -0.05828316 -0.0817299
-0.06930319 0.0015877883 0.08098872 -0.053539995 0.106307894 0.028785972 0.09375514 -0.0026378445
0.0863141 -0.059822936 -0.09816967 0.08482089 -0.06067768 -0.02350353 0.08899904 -0.07477937
-0.048686706 -0.019695746 -0.0505158 0.05365153 -0.070466444 -0.011706061 0.01150768 -0.03678861
0.052672584 -0.025884433 0.01860429 -0.113239735 0.061848428 0.096814945 0.034346312 -0.006611921
-0.08456004 -0.015794298 0.024919353 0.14801341 -0.029765237 0.052959554 -0.0770912 0.017548695
-0.06035135 0.036746126 -0.09900935 -0.06277552 0.05486713 0.0052827224 0.094467156 -0.032552846
-0.08510841 -0.089782625 -0.04569434 0.010514721 0.07394265 0.0105846375 0.014211869 0.02303876
-0.0684444 -0.09255841 0.0996587 -0.025952699 0.060058076 0.08225301 -0.03915721 0.039836
0.09191936 -0.0430363 0.055564754 -0.057576824 -0.04693098 -0.039465778 0.021475863 0.047283728
0.07171384 0.047667503 -0.09963536 -0.0789069 -0.0351813 0.07600858 0.012895017 0.021428585
0.07338137 0.044749275 -0.065678 0.06142519 -0.04288764 -0.030953381 0.052857645 0.029922593

SC2.bias f4 [100]
00000000: 7baf 923d f817 683c ab1e a1bd 9532 9dbd
00000010: 3d93 603d 77e3 633d aa29 8cbd 32c8 70bd
00000020: 616d a2bd fbd1 f93b 35c2 173d 1c41 7abd
00000030: 329a 3f3d 508a aebd 24a3 15bd aafa 8ebc
00000040: de4d 96bd 4365 ac3c 5c4f 0d3c 5b2f c6bd
00000050: b126 d3bc 744c dabc cff3 a2bc 4067 153b
00000060: 1542 bfbd 5449 c1bd bc7a d73d fb6f 9f3d
00000070: 6b10 b33d b866 663d 7fbb 42bd 28b8 f33c
00000080: a659 ab3c 19b0 af3d b3e3 a6bd 7592 5a3d
00000090: 0b65 2b3c 6741 413d 614a 8dbd b1f0 57bd
000000a0: 02e9 6a3d 41ef 3b3d 565e 523d 4cea 8d3d
000000b0: 2534 963d a8a6 c0bc 01e8 f9bb 3e18 8ebd
000000c0: 0f1e c0bd 23df 163c a99e 87bd 5404 84bd
000000d0: 8023 d8bc c877 c9bd d9d0 7d3d 16b6 9e3d
000000e0: c86f 8ebd a118 5e3d 906d 40bc 7069 97bc
000000f0: a503 d73c b8b1 92bd ea59 4b3d 0282 8bbd
00000100: ad86 9fbd 4d5e 92bd 42a7 87bd b183 1b3d
00000110: cb17 263d d7c6 c13b 6195 72bd ad30 f3bc
00000120: 178f dabb 6b8e 9bbd 6f5f f0bc 5094 6c3d
00000130: 244a b23c ae3b a73c 15de 3b3d 3050 dc3d
00000140: cc9d 2fbd 7720 41bc a024 65bd 4c19 ce3c
00000150: 62fd 97bd 1f80 7abd 1cd1 513c 6627 2b3d
00000160: ad98 c33b 275c 373d c04f 003d 769b 6c3c
00000170: 2ef3 22bd f5c9 96bc b97e 1d3d afe8 703d
00000180: 6597 d938 3178 003d 27d9 003c 042b 9dbd
0.071623765 0.014165871 -0.078671776 -0.076756634 0.054827917 0.05563685 -0.06843884 -0.05878467
-0.079310186 0.0076239086 0.037050445 -0.06109725 0.04677791 -0.08522475 -0.036532536 -0.01745351
-0.07339071 0.02104438 0.008624878 -0.09677001 -0.025775285 -0.026647784 -0.019891648 0.0022797137
-0.09338776 -0.09437814 0.105214566 0.077850305 0.08743366 0.056250304 -0.04754209 0.029750898
0.020916771 0.0857851 -0.08148899 0.05336233 0.010461102 0.047181513 -0.06898952 -0.052719776
0.05735112 0.045882467 0.051359497 0.06929454 0.073341645 -0.023516968 -0.007626534 -0.069382176
-0.09380733 0.009208473 -0.06622059 -0.06446138 -0.026384115 -0.098372996 0.06196675 0.07749574
-0.06954914 0.054222707 -0.011744872 -0.018482894 0.026246855 -0.071628034 0.049646296 -0.068119064
-0.07789359 -0.07146893 -0.06623699 0.037967388 0.040550034 0.005913596 -0.05922449 -0.029686296
-0.0066698897 -0.075955234 -0.029342381 0.05775863 0.021763869 0.0204142 0.04586609 0.10757482
-0.042875096 -0.011787525 -0.05594313 0.025158547 -0.07421376 -0.061157342 0.012806203 0.04178562
0.005969128 0.044765618 0.031326056 0.014441362 -0.039782695 -0.018406847 0.03845093 0.058815654
0.00010375566 0.031364623 0.007864273 -0.0767422

SC3.Theta1 f4 [300, 6]
00000000: 9ab9 11bc a391 90be 6786 9a3e 9aba c33d
00000010: ad10 013e a437 c23e 9891 713d a41e 0f3e
00000020: 724a e3bd c9e8 d0bd 5fc4 953e 74e6 6cbd
00000030: cd01 b33e 5821 22be baf7 493e 4791 d3bc
00000040: f2e4 33be aed9 d2bd 752d 67bd 4225 6abe
00000050: 6908 7ebe 38b7 bebd 1b45 a4be 3c80 7b3e
00000060: db54 02bf b916 87be 6f20 b93e 5097 54be
00000070: 1bb7 683b 6982 b03e 4a9e 6dbe 9d0f c6be
00000080: 77e1 44be 28bd 06bf 86ee 9ebe e1b8 5b3e
00000090: d659 86be 8367 283d 1e23 89bd cdea 57be
000000a0: e638 b73e fb5a 83bd 4c46 0e3e 9fca 873e
000000b0: 3f4a 243e c127 f63d 3df6 06be 9943 8bbc
000000c0: 802c 25bd 7ae2 6d3d c30e 6e3e a4bd bebe
000000d0: 6e04 84be 2bad ae3e 5ad2 df3e 457f ba3e
000000e0: f79d 8e3e d79b ca3d d654 e13e fe4f 953d
000000f0: 479f b8bd 730a 3d3e f203 25be 815f 1a3d
00000100: de1e 62bd b187 8ebe a55d 50be 1981 ae3d
00000110: a849 88be ae81 0cbb 2aa3 223e f653 3b3d
00000120: 5d02 413d f2c6 993e 5f0d b3be c7c8 8dbe
00000130: d0e1 733e e824 303e 4699 7e3e 5b5a 9d3e
00000140: ed12 76bd 523e 1abe 25c8 a73c ec67 293d
00000150: 928b 123e 98ad 7ebe 6777 07bd 33bc d73d
00000160: 4b7a be3e 6f47 123e 2412 9abd f587 ab3d
00000170: 2d3f 78be 8875 83be 61d1 bc3e 0897 6a3e
00000180: 36b6 383e dd43 ca3e 8c03 5bbe 1a75 63bd
00000190: b46e d4bd 3053 aabe cc6b 58bd d953 8bbd
000001a0: be90 3d3d 76ba 3e3e ffa7 c73e 70d2 71be
000001b0: 9bb4 adbe c818 d63e 60c9 0b3e 96fb cf3d
000001c0: 5495 403e 2baf 283e 12b2 db3d 6bcb 72be
000001d0: 11d6 003b 44db 143d b622 acbe cd02 613e
000001e0: 58a0 ddbd fe29 9d3d e4a7 ae3e f8d7 853e
000001f0: 1b62 053e 57b6 76be 8120 2b3d f781 32be
00000200: d301 12be 89bf 4bbe 2581 073e 6239 9abd
00000210: b62c c93e 6880 42be 450a aa3e bc28 c8bd
00000220: d0d6 f1bd 77e3 48be 1ee2 88bd b2b0 31be
00000230: 4b93 d63c ca31 70be 20a8 cbbc 592c d3bd
00000240: 07ac b5be 48f1 d4be a252 e03e 0dc5 82be
00000250: aaaa b2be c9e7 a9be ced4 b9be b306 5a3e
00000260: f9cf 8fbe 7efc d6be 4b09 af3d 304c 6e3e
00000270: 66da 8cbd 23c2 d6bd 38e8 81bc 96b2 8c3e
00000280: bff9 c1be 63dc af3e 285c 33be 645b 54be
00000290: 6388 343e 1a19 3d3d 5c73 2dbc 7c60 40be
000002a0: 9d7d 8b3d 8421 383d d8e1 703e d059 b53e
000002b0: f991 713e 8b2c 693e 44c3 b73e 41d6 62be
000002c0: 6089 733e 9bd5 d43c 7e0f 843d 3cfa af3d
000002d0: 974e d9be ce2b 8abe e006 bf3e 322c 93be
000002e0: 349e 11be 5d54 50be dec8 b23e 1109 b1bd
000002f0: 7757 8dbd 2b2f dfbd f6b2 673e 145d a5be
00000300: 0a1f 93be ec3e 343e b8b4 7e3e 31dc 9e3d
00000310: 3692 ee3d 9f9f a33d 75ef a6be dd05 a5be
00000320: 7c0b ccbd b22b ac3e 1c10 e0be c6a4 173e
00000330: 71fc 81bc 987e b8be 0a4d 413e cb4b d93d
00000340: 4540 1bbd 63c5 103e 87db 8a3e bad4 ccbe
00000350: 76e1 183e 61fe 193e 8794 93be 8b90 163e
00000360: 5886 90bd 2297 a3be a9a2 89be 6995 803e
00000370: b3ab 763e c12d c93d d792 71be 8569 95be
00000380: 77fd c43e daad 203e e127 28be 5128 20be
00000390: b3cb 7a3e 1275 373e ae13 08be d24f e73d
000003a0: d2d2 f7bc 4ac3 913e f6f4 67be 39f8 2f3e
000003b0: d8f7 d33d 8469 053f cd06 933e 4b32 eb3d
000003c0: e709 c2bd 86bd 2a3e f0a6 3fbd ddca e13e
000003d0: ced1 e33e b0ec e43d 0f8b 39be d787 83bd
000003e0: d544 8cbe ea0c a13d 34cd 09be ceb0 613e
000003f0: 4f56 e4bd 2561 9f3e b696 ba3e f541 8e3e
-0.0088943485 -0.28236112 0.30180666 0.09557076 0.12604018 0.37933075 0.05897674 0.13976532
-0.11098184 -0.1020065 0.29251382 -0.057836965 0.3496231 -0.15833032 0.19723406 -0.02582611
-0.17567804 -0.10295425 -0.056439836 -0.22865775 -0.24807896 -0.0931229 -0.32083973 0.24560636
-0.5091073 -0.26384524 0.36157557 -0.20760846 0.003550953 0.34474495 -0.23204914 -0.38683787
-0.19226633 -0.5263238 -0.31041354 0.21457244 -0.26240414 0.04111434 -0.06696151 -0.21085663
0.35785598 -0.064138375 0.13894004 0.26521775 0.16043948 0.12019301 -0.1317987 -0.017000007
-0.04032564 0.058077313 0.23247819 -0.3725406 -0.2578463 0.34116492 0.43715173 0.36425224
0.27854893 0.09893005 0.44010037 0.07290648 -0.09014755 0.18461017 -0.16114786 0.037688736
-0.05520522 -0.278379 -0.20348223 0.08520717 -0.26618695 -0.00214396 0.15882555 0.04573437
0.047121394 0.30034596 -0.3497114 -0.27692243 0.2381661 0.17201579 0.24863157 0.30732998
-0.060076643 -0.15062836 0.020481179 0.041358873 0.14311054 -0.24870908 -0.033072855 0.10533943
0.37202677 0.14285062 -0.07522991 0.08375541 -0.2424285 -0.25675607 0.36878493 0.22909176
0.18038258 0.395049 -0.21388072 -0.0555316 -0.103726774 -0.33266592 -0.052837178 -0.06803102
0.046280615 0.18625817 0.38995358 -0.23615432 -0.33926854 0.41815782 0.13651037 0.10155408
0.18806964 0.16473071 0.107273236 -0.2371041 0.0019658844 0.03634192 -0.33620232 0.21973725
-0.10821599 0.07674025 0.34112465 0.26141334 0.13025706 -0.24092995 0.041779045 -0.1743239
-0.14258508 -0.19897284 0.13232858 -0.07530476 0.39291924 -0.18994296 0.3321096 -0.097733945
-0.1180855 -0.19618021 -0.066837534 -0.1735256 0.026193282 -0.23456493 -0.024860442 -0.10311193
-0.3548281 -0.41590333 0.43813044 -0.25540963 -0.3489583 -0.3318465 -0.3629517 0.21291618
-0.28088358 -0.4198951 0.08546694 0.2327125 -0.06877594 -0.104862474 -0.0158578 0.2748
-0.37885854 0.3434783 -0.17515624 -0.20737988 0.17630152 0.046166517 -0.010586586 -0.18786806
0.06811068 0.044953838 0.23523653 0.35420084 0.2359084 0.22770898 0.35891163 -0.22152044
0.23782873 0.025980761 0.064482674 0.0859265 -0.42442772 -0.26986545 0.37309933 -0.28744656
-0.14220506 -0.20344682 0.34918875 -0.086443074 -0.06901448 -0.108976685 0.22626862 -0.32297575
-0.28734618 0.17602128 0.24873626 0.07756842 0.11648981 0.0798943 -0.32604566 -0.32231036
-0.09963128 0.33627087 -0.4376229 0.1480895 -0.015867444 -0.36034083 0.18877044 0.106101595
-0.03790309 0.14137797 0.2712061 -0.40006047 0.14929757 0.15038444 -0.28824255 0.14703576
-0.07056874 -0.31951243 -0.26881912 0.2511399 0.24088936 0.0982318 -0.23591171 -0.29182068
0.38474628 0.15691319 -0.16421463 -0.1564038 0.24491768 0.17915753 -0.13288757 0.112945214
-0.030251894 0.28469306 -0.22652039 0.17184533 0.10350007 0.5211413 0.28716126 0.11484202
-0.09474545 0.1667386 -0.046790063 0.44100085 0.44496006 0.11177957 -0.18119453 -0.06422394
-0.27396265 0.07863791 -0.13457185 0.22040102 -0.111492746 0.31128803 0.36443108 0.27784696

SC3.bias f4 [6]
00000000: af60 9d3e 5c2d a5be ba76 ac3e a7f5 04be
00000010: faec 37be d57a 8bbe
0.30737826 -0.3226117 0.3368433 -0.12984334 -0.17961493 -0.2724215
