model/IGNNK_nrel.pth (torch, 161573 bytes, 6 tensors)

GNN1.Theta1 f4 [48, 100]
-0.08294673 0.069424264 0.16466433 0.17838998 -0.068866454 -0.16862977 -2.0604904 -0.09352556
0.070808284 -1.8317918 -0.014650143 -0.04467839 -0.0047408966 -1.6341176 -0.1589189 -0.05261035
0.10769699 0.010009606 0.056300674 -0.12133375 0.057615537 -0.23000573 -0.053735916 0.015163565
0.03829907 0.08446355 -0.108279444 -0.07228569 -0.0982753 -0.053901598 0.03177334 -0.03083521
-0.011094763 -1.679973 0.003568233 0.08786969 0.10313864 -0.08391622 0.088379264 0.049941823
-0.12433729 0.05772639 0.04357672 0.0298468 -0.01553137 -0.10287579 -0.052490097 0.033260968
-0.12778449 0.044340014 0.015540927 0.016019179 0.086828746 -0.04681955 -0.0058004046 0.068091564
-0.8709793 0.0399069 0.002012711 0.052542794 -0.39050788 -0.08001632 -0.0913728 0.043400027
-0.0794933 0.052186396 0.07170151 0.16656956 0.08805636 0.11038149 0.06312594 0.086076364
0.04223292 -0.11181382 0.06404681 -0.048312783 0.029342212 -0.057881843 -1.868403 0.012153453
-1.018875 0.01603068 0.03603759 0.15114228 -0.03368452 -2.0302336 -0.07674709 -0.058482904
0.111939155 -0.08817486 0.12869991 0.023951076 -0.08374061 -0.013642303 -0.08395407 0.0594166
0.08850632 0.16370839 -0.07163959 -0.08950211 -0.04495455 -0.042050596 -0.06920257 0.070875905
0.0654032 -0.061092947 -0.013748614 -0.018715799 0.055731643 0.12156943 0.08971021 0.14130016
0.047628865 -0.022663731 -0.073303014 0.0058626262 0.037218105 -0.077370785 0.00812631 -0.025156196
0.106393956 -0.065302506 -0.06365478 -0.06488537 -0.029831974 -0.07209222 0.12104029 -0.04461564
0.099506274 -0.043259695 0.012369078 -0.0842995 0.0017764741 0.07772973 -0.016895201 0.052164942
-0.11018235 -0.050604668 -0.025424745 -0.044459306 0.014988808 -0.009400311 -0.04889113 -0.008080602
0.014588376 0.0469118 0.066469274 -0.07413927 -0.0052880086 -0.08234045 -0.04472332 -0.079348974
0.102649845 0.014950743 0.05252439 -0.023821821 0.10267764 0.040535524 0.047724098 0.056019466
-0.086011626 -0.097573385 -0.013496666 -0.0043541407 0.093394615 0.09396236 0.02933939 0.008772043
-0.020358237 -0.005803326 0.06608878 0.06399286 0.074163415 -0.0749772 0.06325078 -0.09781906
-0.047435872 0.05186294 -0.08651428 -0.036500826 -0.27518606 0.00018501484 0.023951383 0.00068449747
-0.099689625 -0.006367735 -0.07888878 0.0006625393 0.0055285827 0.045238372 -0.0006283482 0.033255193
-0.050263897 0.055416517 0.025810482 -0.076052085 -0.08323196 0.024920005 -0.035970777 -0.13021083
-0.095770575 0.03793857 0.09474334 0.05971277 -0.08841927 -0.13875051 -0.011150382 0.089640945
0.018618044 0.038475484 0.01205374 0.009519468 0.0806273 0.04143069 -0.08963683 -0.0054510813
-0.026930045 -0.06890709 -0.0047379164 0.055495504 -0.061157607 0.0087120235 -0.073447466 -0.008620918
-0.022135599 0.06225885 -0.05325273 -0.09381129 0.08862209 0.0015599745 -0.06283663 -0.0025993104
-0.008921596 -0.01411774 -0.07580608 0.04537893 -0.020754103 -0.0788636 0.045062512 0.09672927
-0.06814951 0.0844365 0.04273084 -0.06256534 0.045646068 -0.051186405 -0.059565626 -0.09318593
-0.051027384 0.04085178 0.13635072 -0.059113897 -0.08426777 0.03306627 0.02079646 -0.028637493
00000000: fadf a9bd 4f2e 8e3d c49d 283e ddab 363e
00000010: db09 8dbd 48ad 2cbe 13df 03c0 548a bfbd
00000020: ef03 913d 2778 eabf 2707 70bc b000 37bd
00000030: 8659 9bbb c42a d1bf a3bb 22be f37d 57bd
00000040: 3d90 dc3d 55ff 233c 899b 663d d47d f8bd
00000050: 45fe 6b3d 9f86 6bbe 311a 5cbd 9a70 783c
00000060: 7cdf 1c3d 3afb ac3d 9dc1 ddbd 850a 94bd
00000070: 8f44 c9bd ecc7 5cbd c324 023d 1f9a fcbc
00000080: cfc6 35bc 5b09 d7bf 04d9 693b 06f5 b33d
00000090: 5a3a d33d 44dc abbd 3000 b53d cc8f 4c3d
000000a0: 8da4 febd 8272 6c3d 817d 323d 4781 f43c
000000b0: 4a77 7ebc 8bb0 d2bd dbff 56bd a73c 083d
000000c0: f0d9 02be e09d 353d 5f9f 7e3c a73a 833c
000000d0: 45d3 b13d dbc5 3fbd 5211 bebb 9773 8b3d
000000e0: 80f8 5ebf 6b75 233d b0e7 033b 1d37 573d
000000f0: a6f0 c7be 99df a3bd aa21 bbbd 3ac4 313d
00000100: 62cd a2bd 67c1 553d 3ed8 923d 3691 2a3e
00000110: e556 b43d b10f e23d 2c48 813d ce48 b03d
00000120: 6dfc 2c3d a5fe e4bd f92a 833d a0e3 45bd
00000130: 145f f03c 8315 6dbd d427 efbf 471f 473c
00000140: 7f6a 82bf c652 833c 279c 133d 0bc5 1a3e
00000150: c7f8 09bd 59ef 01c0 942d 9dbd c58b 6fbd
00000160: 5b40 e53d 0595 b4bd e9c9 033e 0c35 c43c
00000170: 3280 abbd f783 5fbc 1df0 abbd d25e 733d
00000180: cd42 b53d 2ca3 273e c7b7 92bd e24c b7bd
00000190: 4322 38bd 3f3d 2cbd 14ba 8dbd 6327 913d
000001a0: 1df2 853d 993c 7abd de41 61bc e051 99bc
000001b0: dd46 643d 65f9 f83d fdb9 b73d fdb0 103e
000001c0: 7c16 433d 4aa9 b9bc e41f 96bd 461b c03b
000001d0: 0372 183d 9374 9ebd 3724 053c 5e14 cebc
000001e0: 13e5 d93d 52bd 85bd 705d 82bd 9fe2 84bd
000001f0: 2f62 f4bc 16a5 93bd f9e3 f73d e4be 36bd
00000200: f2c9 cb3d 1431 31bd aca7 4a3c 37a5 acbd
00000210: 94d8 e83a c430 9f3d ce67 8abc e8aa 553d
00000220: 49a7 e1bd d746 4fbd 8e47 d0bc f61a 36bd
00000230: 9e93 753c c303 1abc 1142 48bd 8064 04bc
00000240: 1504 6f3c 9626 403d 0b21 883d 54d6 97bd
00000250: 0847 adbb 1ca2 a8bd cd2f 37bd b781 a2bd
00000260: 153a d23d f6f3 743c d123 573d fb25 c3bc
00000270: a848 d23d 9408 263d 587a 433d ab74 653d
00000280: dd26 b0bd 8ed4 c7bd 1f21 5dbc 2ead 8ebb
00000290: ad45 bf3d 566f c03d 2959 f03c 9db8 0f3c
000002a0: 51c6 a6bc d429 bebb 8e59 873d b00e 833d
000002b0: fde2 973d a58d 99bd a089 813d 5c55 c8bd
000002c0: 1e4c 42bd 3c6e 543d 662e b1bd e481 15bd
000002d0: 30e5 8cbe 8b00 4239 b135 c43c d96f 333a
000002e0: 132a ccbd 6fa8 d0bb 7190 a1bd 43ae 2d3a
000002f0: 1d29 b53b df4b 393d bcb7 24ba 9936 083d
00000300: 84e1 4dbd 6efc 623d 8170 d33c 32c1 9bbd
00000310: 8575 aabd 0a25 cc3c 1856 13bd fd55 05be
00000320: 5d23 c4bd 7965 1b3d cc08 c23d 6195 743d
00000330: 2a15 b5bd 9d14 0ebe 18b0 36bc ac95 b73d
00000340: de84 983c 7898 1d3d 0d7d 453c 8bf7 1b3c
00000350: ed1f a53d 3ab3 293d 8493 b7bd fc9e b2bb
00000360: 669c dcbc 291f 8dbd 8640 9bbb 414f 633d
00000370: 6680 7abd e0bc 0e3c a06b 96bd c03e 0dbc
00000380: b755 b5bc 2303 7f3d 891f 5abd 2220 c0bd
00000390: 807f b53d 0f78 cc3a 7eb0 80bd 3159 2abb
000003a0: e32b 12bc 184e 67bc 3840 9bbd 42df 393d
000003b0: 8204 aabc 3d83 a1bd 7893 383d ff19 c63d
000003c0: f891 8bbd 0bed ac3d 8906 2f3d 4222 80bd
000003d0: 5ff7 3a3d d6a8 51bd 16fb 73bd 44d8 bebd
000003e0: 1702 51bd 3254 273d 869f 0b3e 6a21 72bd
000003f0: 9594 acbd 7f70 073d 565d aa3c 2d99 eabc

GNN1.bias f4 [100]
-0.054641247 -0.00015569152 0.073094055 0.007692143 -0.048084117 -5.446728e-05 0.025475541 0.06406261
-0.0514638 0.037905347 -0.089017354 -0.10392286 0.068965636 0.028411034 0.105498776 -0.0014414584
-0.02022447 0.017969063 0.047830362 0.0042032665 -0.06756138 -0.025998589 0.044507757 -0.05483762
0.12837774 0.06730564 0.11026971 0.05464162 -0.08858975 0.08291161 0.0016047929 0.088071756
-0.10753475 0.057688665 0.00033397815 -0.13143566 0.09956243 0.09240778 -0.012654962 -0.044957086
0.07388203 -0.044780757 0.048200555 -0.087881185 -0.0035052074 0.06924105 0.11938577 0.04243771
-0.056239538 0.0500853 -0.11593178 0.032724414 0.024651742 0.00087320566 -0.09380423 0.006995826
0.03755328 -0.062517375 0.005656292 0.048498333 -0.007536879 0.08236991 -0.0006278618 0.058677725
-0.060229447 6.553939e-05 0.015596427 -0.0006835676 0.080016665 0.044697024 0.026845807 0.054564368
0.048777554 0.10501226 0.00017193845 0.08164387 0.011399822 -0.0040746382 0.04853628 -0.0015261751
0.04756331 -0.0788859 -0.03507313 -0.00045759595 -0.09523015 0.077787735 0.11251262 0.078417495
0.025469085 0.031900536 -0.0004918946 -0.09185212 0.025319433 0.06244007 -0.102375485 -0.07222243
-0.06110387 -0.0953843 -0.04485761 0.02173132
00000000: 80cf 5fbd 2041 23b9 56b2 953d 5f0e fc3b
00000010: daf3 44bd cc73 64b8 15b2 d03c 4233 833d
00000020: b5cb 52bd a342 1b3d bb4e b6bd 82d5 d4bd
00000030: db3d 8d3d 42be e83c be0f d83d 51ef bcba
00000040: caad a5bc db33 933c c5e9 433d 8ebb 893b
00000050: 9f5d 8abd fefa d4bc c44d 363d 6a9d 60bd
00000060: 7475 033e 8ad7 893d 16d5 e13d e4cf 5f3d
00000070: 8b6e b5bd 90cd a93d ea57 d23a f75e b43d
00000080: 2e3b dcbd f34a 6c3d ca19 af39 1297 06be
00000090: 63e7 cb3d 4a40 bd3d c256 4fbc ec24 38bd
000000a0: 764f 973d 076c 37bd f26d 453d 0dfb b3bd
000000b0: 9fb7 65bb 40ce 8d3d 8780 f43d 2ad3 2d3d
000000c0: 6e5b 66bd 3e26 4d3d a46d edbd 090a 063d
000000d0: 73f2 c93c d7e7 643a 6f1c c0bd 3e3d e53b
000000e0: 78d1 193d 1c09 80bd 6b58 b93b 30a6 463d
000000f0: ecf7 f6bb 8eb1 a83d 1897 24ba 0e58 703d
00000100: 27b3 76bd 3172 8938 2888 7f3c 7231 33ba
00000110: c7df a33d 3a14 373d bdeb db3c e37e 5f3d
00000120: f9ca 473d ab10 d73d 604a 3439 e734 a73d
00000130: 52c6 3a3c 8b84 85bb facd 463d f009 c8ba
00000140: bfd1 423d ee8e a1bd d8a8 0fbd 7de9 efb9
00000150: 0608 c3bd 2d4f 9f3d 046d e63d 5a99 a03d
00000160: 8ba4 d03c 23aa 023d 7df2 00ba f71c bcbd
00000170: b36a cf3c 29c1 7f3d 3daa d1bd 5ae9 93bd
00000180: 0d48 7abd d858 c3bd 9dbc 37bd e205 b23c

GNN2.Theta1 f4 [300, 100]
-0.054404546 -0.09783371 -0.09591409 0.06123556 0.062587164 -0.008393384 0.074198745 0.02337265
0.036970735 0.00029369592 0.07781374 0.09139104 0.03125086 -0.0663593 0.022902286 -0.043557
-0.09925868 0.067360535 -0.07110391 -0.0028478622 -0.07766055 -0.03218596 -0.025710309 -0.07549657
-0.06643025 -0.06879099 0.07737024 0.09600284 -0.04153241 -0.027460849 0.04984429 0.087966956
0.049580704 0.038998272 0.033698894 0.07591647 0.07218454 -0.028682768 0.07423901 0.076963305
0.02178594 -0.020121014 -0.011024403 -0.09490525 0.041119006 -0.062704794 0.0017980576 0.09781913
0.01053232 -0.08349998 -0.04455743 0.064416744 -0.060144342 -0.036301494 -0.072239116 -0.098968744
-0.07262784 -0.024862742 -0.0144056445 0.011760163 0.023810422 0.09365626 0.07437282 0.071395986
-0.08600544 0.056926705 0.05227058 -0.08554498 0.042742588 -0.021428514 0.091802835 0.05925727
0.028965116 0.05404991 -0.022867655 0.033911765 -0.097726 -0.06384083 0.033255983 -0.09885744
-0.047498893 -0.0842241 0.009962357 0.050820496 0.06481216 0.08622853 0.09811633 -0.07948922
0.0007968664 0.06078532 -0.093366854 0.0063838125 0.013529265 0.019247353 0.06986862 -0.09198295
0.013460136 0.009091414 0.031595886 -0.050018992 -0.043168582 0.013077307 0.009281635 -0.09397646
0.060284186 0.094847694 0.079459205 0.046547342 -0.097559154 -0.08156609 0.03592937 0.09163015
-0.054254737 -0.00659678 0.023494804 -0.079283275 -0.08400255 -0.071531646 0.08639955 -0.04358678
0.05611607 0.0697514 0.050928917 -0.025223542 0.083819784 0.0972768 0.012723493 0.09995164
0.018015875 0.08539909 -0.08055433 0.005708802 -0.0075876354 -0.017913235 0.036505032 0.061571218
-0.06602136 0.04691094 -0.09874417 -0.06581544 0.008811235 0.027309705 -0.092984155 -0.08121171
-0.08365526 -0.03328767 -0.025360823 -0.029341197 0.028472781 -0.089687705 -0.08782871 -0.044435393
0.08845573 -0.09195615 -0.02634771 -0.060314324 0.08199086 0.04750469 0.003532064 -0.021782566
0.0020602227 0.0023285747 0.054715145 -0.0724771 -0.062712245 -0.04034362 -0.031034052 -0.019553935
0.07768949 0.09080734 0.04675808 -0.06512219 0.026309824 -0.009390724 -0.035748303 0.009589112
0.0015681147 0.016722918 -0.06335213 0.03695804 0.080773495 -0.01100452 0.007087171 0.08852817
-0.053752996 0.031030035 -0.0034520866 -0.03246602 0.051744163 -0.021968782 -0.030498995 -0.0061944844
0.09217419 -0.02894069 -0.06357868 0.06876619 -0.08055693 0.07160514 -0.092032805 0.02528199
0.049351573 -0.06578616 -0.022155656 -0.07036086 0.0291466 0.060714245 0.06973638 0.043874692
0.053675365 0.022112085 0.013975573 0.07962509 0.06791991 -0.029611921 0.07908969 -0.025592243
0.06468445 0.072776295 0.02441001 0.08412369 0.072710134 -0.09904565 -0.084024124 -0.045951556
0.04264809 -0.059619725 0.036373746 -0.036508836 -0.08573166 0.0785762 0.0014911414 0.084688805
0.033537507 -0.054057956 -0.023961676 0.010423553 -0.001822126 -0.014313149 0.017821277 0.017682064
0.058008518 -0.0752034 -0.07261149 -0.0766535 -0.07742839 0.01762048 0.047354173 0.027811551
0.010648918 -0.05893154 -0.004561567 -0.069666006 0.038415637 0.011282444 0.09533656 0.043121804
00000000: 4dd7 5ebd 0a5d c8bd 9b6e c4bd 23d2 7a3d
00000010: b32d 803d 6784 09bc 83f5 973d 0078 bf3c
00000020: a06e 173d 33fb 9939 cf5c 9f3d 3a2b bb3d
00000030: e700 003d 62e7 87bd 939d bb3c d368 32bd
00000040: 2348 cbbd 52f4 893d ed9e 91bd 33a3 3abb
00000050: 7f0c 9fbd 6dd5 03bd 6d9e d2bc f29d 9abd
00000060: 950c 88bd 4ae2 8cbd 4a74 9e3d 239d c43d
00000070: e31d 2abd 93f5 e0bc 8729 4c3d 0528 b43d
00000080: 2315 4b3d a7bc 1f3d da07 0a3d 187a 9b3d
00000090: 7dd5 933d 20f8 eabc 9f0a 983d f09e 9d3d
000000a0: 6d78 b23c d3d4 a4bc b39f 34bc af5d c2bd
000000b0: 676c 283d 5f6b 80bd cdac eb3a 6555 c83d
000000c0: c08f 2c3c 0a02 abbd da81 36bd edec 833d
000000d0: ea59 76bd e0b0 14bd 1af2 93bd 20b0 cabd
000000e0: e8bd 94bd f3ac cbbc a705 6cbc b3ad 403c
000000f0: 130e c33c dace bf3d c750 983d 0f38 923d
00000100: 9f23 b0bd fa2b 693d ad19 563d 3532 afbd
00000110: da12 2f3d da8a afbc 2003 bc3d c0b7 723d
00000120: 4048 ed3c 7063 5d3d f354 bbbc 10e7 0a3d
00000130: 9224 c8bd fbbe 82bd 6d37 083d c575 cabd
00000140: 338e 42bd af7d acbd 2739 233c 2729 503d
00000150: 3dbc 843d 9598 b03d 37f1 c83d 3fcb a2bd
00000160: cde4 503a 07fa 783d 1f37 bfbd 4d2f d13b
00000170: daa9 5d3c a0ac 9d3c 4717 8f3d 8f61 bcbd
00000180: e787 5c3c 27f4 143c b06a 013d b7e0 4cbd
00000190: 8ad1 30bd 3342 563c 0012 183c bb76 c0bd
000001a0: 8dec 763d 823f c23d 82bb a23d 6da8 3e3d
000001b0: 18cd c7bd 1f0c a7bd ad2a 133d 97a8 bb3d
000001c0: 373a 5ebd cd29 d8bb 2d78 c03c 455f a2bd
000001d0: 8709 acbd 2f7f 92bd 3ff2 b03d 0d88 32bd
000001e0: f7d9 653d d2d9 8e3d d79a 503d 9aa1 cebc
000001f0: b5a9 ab3d 0f39 c73d 3376 503c 72b3 cc3d
00000200: 0796 933c b8e5 ae3d abf9 a4bd e710 bb3b
00000210: b3a1 f8bb c7be 92bc 4d86 153d 1a32 7c3d
00000220: 3536 87bd b025 403d 623a cabd 3fca 86bd
00000230: 005d 103c 9ab8 df3c 7a6e bebd 5352 a6bd
00000240: 7353 abbd a758 08bd 80c1 cfbc f35c f0bc
00000250: c03f e93c 30ae b7bd 8adf b3bd e301 36bd
00000260: 4728 b53d 8253 bcbd 27d7 d7bc 270c 77bd
00000270: d3ea a73d 4794 423d 337a 673b 5a71 b2bc
00000280: cd04 073b 009b 183b fd1c 603d e06e 94bd
00000290: 476f 80bd 5a3f 25bd 203b febc 932f a0bc
000002a0: ab1b 9f3d 33f9 b93d 6785 3f3d c85e 85bd
000002b0: b387 d73c 8ddb 19bc d06c 12bd a71b 1d3c
000002c0: 3389 cd3a 80fe 883c c3be 81bd 5061 173d
000002d0: 936c a53d 4d4c 34bc 803b e83b 424e b53d
000002e0: 1a2c 5cbd b332 fe3c 673c 62bb 17fb 04bd
000002f0: b0f1 533d e0f7 b3bc 07d9 f9bc 1afb cabb
00000300: d2c5 bc3d 0715 edbc 8a35 82bd 4ad5 8c3d
00000310: 08fb a4bd b7a5 923d b27b bcbd 2d1c cf3c
00000320: e024 4a3d e5ba 86bd c77f b5bc 5b19 90bd
00000330: dac4 ee3c 80af 783d f2d1 8e3d f3b5 333d
00000340: b3da 5b3d 6724 b53c cdf9 643c 7b12 a33d
00000350: 9819 8b3d b394 f2bc c7f9 a13d d3a6 d1bc
00000360: 4879 843d bd0b 953d 80f7 c73c 0b49 ac3d
00000370: 0de9 943d 72d8 cabd d714 acbd b337 3cbd
00000380: c3af 2e3d d033 74bd a3fc 143d 4a8a 15bd
00000390: 1594 afbd 8fec a03d 6772 c33a 5371 ad3d
000003a0: a05e 093d e06b 5dbd 474b c4bc 8dc7 2a3c
000003b0: 67d4 eeba b381 6abc edfd 913c fad9 903c
000003c0: 579a 6d3d 3d04 9abd 55b5 94bd 83fc 9cbd
000003d0: c792 9ebd d358 903c 73f6 413d 0dd5 e33c
000003e0: cd78 2e3c 3362 71bd 3379 95bb 0dad 8ebd
000003f0: b759 1d3d 00da 383c d03f c33d 7da0 303d

GNN2.bias f4 [100]
0.08753544 -0.050311103 -0.07470271 -0.025643518 -0.04763207 0.057433408 0.03084096 0.045327496
0.051230893 -0.050323594 0.020878572 0.059449594 0.061908595 0.07347334 0.009910091 0.021222917
0.061161634 0.0140723465 0.083432615 -0.09184045 -0.064030066 -0.033188075 0.011290438 -0.07696298
0.014048559 -0.07510733 0.0620996 -0.09528849 0.023402574 -0.033684596 0.11358129 -0.04189632
0.041190315 0.06709704 -0.09156918 -0.081020094 -0.03450974 0.032575868 -0.004348986 0.021421771
-0.021888806 0.01609854 -0.004887903 0.1061134 0.08597269 0.019444147 -0.03152641 0.05127818
0.055282425 0.056756817 0.055302013 0.031734392 0.07349961 -0.03413447 0.014208666 0.09699501
0.05132501 0.06993044 0.056053303 -0.09345688 0.029876465 -0.09650843 -0.009901407 -0.056714203
0.0003866315 0.06161193 0.097421974 0.034645006 -0.017178437 -0.0306608 0.055318076 -0.0096116
0.0067104404 0.034093633 -0.08348896 -0.09230001 0.12028309 -0.045994524 0.07685046 -0.07508956
0.011257183 -0.093367845 -0.045146775 -0.07673091 0.008573737 0.054134566 -0.005212385 0.005879608
-0.049291484 -0.019997306 0.042997323 -0.0055580856 0.009069634 0.028276175 0.06811334 0.102028735
0.043459684 0.027456531 0.033613767 0.010668367
00000000: c845 b33d 0413 4ebd bcfd 98bd 5b12 d2bc
00000010: d819 43bd 4b3f 6b3d 2ea6 fc3c 53a9 393d
00000020: 7cd7 513d 1d20 4ebd 8a09 ab3c 6b81 733d
00000030: de93 7d3d 3179 963d ef5d 223c afdb ad3c
00000040: 9f84 7a3d b38f 663c b8de aa3d d916 bcbd
00000050: 3222 83bd 38f0 07bd 87fb 383c c49e 9dbd
00000060: ed2b 663c dfd1 99bd 265c 7e3d 9d26 c3bd
00000070: c1b6 bf3c dcf8 09bd 4f9d e83d 7a9b 2bbd
00000080: 2db7 283d 2c6a 893d 9f88 bbbd dded a5bd
00000090: 165a 0dbd 466e 053d f081 8ebb b67c af3c
000000a0: 2750 b3bc 16e1 833c b42a a0bb fb51 d93d
000000b0: 7312 b03d 5549 9f3c d621 01bd 1209 523d
000000c0: d36f 623d d679 683d 5d84 623d ecfb 013d
000000d0: f786 963d 96d0 0bbd 77cb 683c 52a5 c63d
000000e0: 2c3a 523d b137 8f3d 2698 653d 5266 bfbd
000000f0: 7dbf f43c 36a6 c5bd 8339 22bc 274d 68bd
00000100: cdb4 ca39 cb5c 7c3d 2c85 c73d ece7 0d3d
00000110: cbb9 8cbc 5c2c fbbc 3595 623d f979 1dbc
00000120: 41e3 db3b c4a5 0b3d 43fc aabd ca07 bdbd
00000130: fb56 f63d c164 3cbd c663 9d3d 8ec8 99bd
00000140: 0c70 383c a437 bfbd d3eb 38bd 1825 9dbd
00000150: dc78 0c3c 35bc 5d3d a8cc aabb baa9 c03b
00000160: dee5 49bd 64d1 a3bc f61d 303d 9a20 b6bb
00000170: cd98 143c 70a3 e73c 027f 8b3d 71f4 d03d
00000180: c802 323d 85ec e03c 97ae 093d 60ca 2e3c

GNN3.Theta1 f4 [300, 16]
-0.19011252 -0.26817024 -0.20971203 -0.47137275 -0.4367321 -0.33460608 -0.47061852 -0.54814786
-0.41262656 -0.38419375 -0.43786097 -0.51629233 -0.44152203 -0.36446136 -0.28045893 -0.35263088
-0.35924673 -0.3330425 -0.3238629 -0.270109 -0.464607 -0.2631836 -0.20732495 -0.31168112
-0.27328774 -0.55380005 -0.42425692 -0.25163856 -0.57559663 -0.32705724 -0.25066304 -0.16066156
-0.30011368 -0.23855841 -0.5324347 -0.40016177 -0.6123906 -0.31383875 -0.4666261 -0.45183125
-0.60828316 -0.1549934 -0.29911867 -0.34040463 -0.49023905 -0.1926959 -0.23970714 -0.3523145
-0.20657313 0.05976311 0.043499187 -0.0712303 -0.10321148 -0.17267087 0.055918436 0.15430593
0.027984416 0.14245315 -0.20876163 0.050621122 -0.19741555 0.19059739 -0.02513761 -0.03907322
-0.15808824 0.15789339 0.19974248 -0.079689264 -0.115861356 0.08779719 -0.16818842 -0.18259281
-0.16505697 -0.1383568 -0.16323401 0.05561473 0.004768738 0.0012897907 -0.116853565 -0.010706988
0.013167778 -0.18564707 -0.0726662 -0.060138784 0.037212957 -0.08882327 -0.10568319 -0.10344305
-0.17550129 -0.015967146 0.09509577 0.20648211 -0.09191255 -0.14824228 -0.20171534 -0.10987853
0.06760846 0.020791268 -0.16062249 -0.33315116 -0.32316655 -0.11772445 0.013063721 -0.3623995
-0.28228834 -0.24253759 0.14233513 -0.24591878 -0.036078807 -0.13981768 0.1801508 0.14594427
0.23904179 -0.08586287 -0.039608054 0.10603095 -0.21777987 0.059665944 -0.09020587 0.113051355
0.20480788 -0.15155749 -0.199645 0.15465157 0.19426207 0.16579421 -0.010554692 -0.09172782
0.18390758 0.15973313 -0.08305864 -0.11252911 -0.08224332 -0.076296255 0.067065366 -0.1381926
-0.053319175 0.15872873 0.17546369 -0.120334044 -0.17941956 -0.047325656 0.10310926 -0.10712263
0.116511434 0.058238417 -0.19489717 0.19088149 -0.048499815 -0.10878652 -0.26208705 -0.061438974
0.07970639 0.21002865 -0.045153856 -0.21613197 0.14286356 0.21940476 -0.19706023 0.16834922
0.14075126 -0.09892669 -0.111732975 0.20848209 0.22913706 -0.08287592 -0.23188904 -0.17032266
0.19289224 0.20793246 -0.079265945 0.05531178 0.1138006 0.16950476 0.16179112 -0.14403164
-0.20030572 0.20016097 -0.07207321 -0.24102494 -0.12907368 -0.09899975 0.21110392 0.09220099
-0.03931357 -0.051355142 -0.108404465 -0.0736809 0.03193539 -0.20761621 -0.056295123 -0.13728559
0.09392155 0.11580819 -0.056127165 -0.07233091 -0.14005682 -0.07392304 0.11181581 0.10851483
0.1521589 -0.0676879 -0.12213114 0.090744846 -0.22200331 0.14784604 -0.10589528 -0.21836093
-0.2091408 -0.15107112 -0.03313355 0.09567386 -0.015449853 0.10162427 -0.009968027 -0.15972097
-0.11046311 -0.251005 0.20721427 0.20698169 -0.04910437 -0.08188687 0.19740367 0.15897383
-0.08441391 0.17691804 -0.15331829 0.11480999 0.19018304 0.19259089 -0.09322831 -0.25304726
-0.19457397 -0.06515852 -0.16761297 0.12822409 -0.01809437 0.1154428 0.077875756 -0.06877888
-0.17250593 0.14518481 0.114950754 -0.2403081 -0.087478444 0.069223374 -0.0251878 -0.14605652
0.2329524 -0.07471507 -0.08928507 0.22409333 -0.055311795 0.015776673 0.18564646 0.14649221
00000000: dbac 42be 9c4d 89be c0be 56be c557 f1be
00000010: 5a9b dfbe 7d51 abbe e9f4 f0be 6b53 0cbf
00000020: ca43 d3be 0bb5 c4be 502f e0be bc2b 04bf
00000030: 2d0f e2be ae9a babe 5098 8fbe 098c b4be
00000040: 30ef b7be 8c84 aabe 5cd1 a5be ba4b 8abe
00000050: f8e0 edbe 00c0 86be fe4c 54be ab94 9fbe
00000060: 5fec 8bbe d7c5 0dbf 3438 d9be c5d6 80be
00000070: 4d5a 13bf 0c74 a7be e856 80be 7784 24be
00000080: 80a8 99be a848 74be a44d 08bf 01e2 ccbe
00000090: a1c5 1cbf 79af a0be 9ee9 eebe 6d56 e7be
000000a0: 72b8 1bbf 97b6 1ebe 1526 99be 8449 aebe
000000b0: 9d00 fbbe 1352 45be ca75 75be 9162 b4be
000000c0: e887 53be 2aca 743d 342c 323d 31e1 91bd
000000d0: 8a60 d3bd a2d0 30be bb0a 653d 6002 1e3e
000000e0: 933f e53c 3ddf 113e 9cc5 55be 1858 4f3d
000000f0: 4d27 4abe f62b 433e 64ed cdbc 3e0b 20bd
00000100: e2e1 21be ceae 213e 4b89 4c3e 2034 a3bd
00000110: b848 edbd 03cf b33d 9639 2cbe 9cf9 3abe
00000120: b204 29be 68ad 0dbe d126 27be 45cc 633d
00000130: 1343 9c3b 320e a93a ec50 efbd 5d6c 2fbc
00000140: aabd 573c 441a 3ebe 04d2 94bd 1654 76bd
00000150: 9d6c 183d f9e8 b5bd 6e70 d8bd f3d9 d3bd
00000160: 9cb6 33be 88cd 82bc 92c1 c23d 0c70 533e
00000170: a63c bcbd d3cc 17be 778e 4ebe ff07 e1bd
00000180: 4e76 8a3d 7352 aa3c 397a 24be ca92 aabe
00000190: 1676 a5be 8419 f1bd 3809 563c 6d8c b9be
000001a0: 1988 90be c65b 78be 4dc0 113e 22d2 7bbe
000001b0: 5fc7 13bd 5e2c 0fbe 7479 383e 6a72 153e
000001c0: 5fc7 743e dfd8 afbd 0e3c 22bd c126 d93d
000001d0: b001 5fbe 4764 743d dbbd b8bd 7887 e73d
000001e0: 28b9 513e e331 1bbe bd6f 4cbe fb5c 1e3e
000001f0: a3ec 463e f5c5 293e 96ed 2cbc ccdb bbbd
00000200: 4552 3c3e 1591 233e a61a aabd a975 e6bd
00000210: 306f a8bd 3641 9cbd 9159 893d 5c82 0dbe
00000220: 3565 5abd c989 223e c1ac 333e b271 f6bd
00000230: c3b9 37be 8cd8 41bd f32a d33d 1c63 dbbd
00000240: 8c9d ee3d 688b 6e3d 2093 47be 7076 433e
00000250: bea7 46bd 78cb debd 4630 86be 6fa7 7bbd
00000260: 1b3d a33d c011 573e 40f3 38bd b351 5dbe
00000270: d34a 123e a4ab 603e 28ca 49be bd63 2c3e
00000280: 1921 103e 149a cabd 42d4 e4bd 547c 553e
00000290: e8a2 6a3e daba a9bd 5274 6dbe 1069 2ebe
000002a0: 8b85 453e 3fec 543e 2f56 a2bd 9b8e 623d
000002b0: 4a10 e93d a892 2d3e 92ac 253e 087d 13be
000002c0: f11c 4dbe fff6 4c3e 1e9b 93bd 3ecf 76be
000002d0: e42b 04be 62c0 cabd a02b 583e dfd3 bc3d
000002e0: 4407 21bd c559 52bd 2903 debd 03e6 96bd
000002f0: afce 023d 5899 54be b795 66bd 9894 0cbe
00000300: f159 c03d d82c ed3d 99e5 65bd 3a22 94bd
00000310: 0e6b 0fbe f664 97bd b0ff e43d 063d de3d
00000320: 8bcf 1b3e f49f 8abd e41f fabd 6fd8 b93d
00000330: d654 63be f464 173e a0df d8bd 029a 5fbe
00000340: 0229 56be 63b2 1abe 0cb7 07bd a8f0 c33d
00000350: 6121 7dbc 6320 d03d ef50 23bc e58d 23be
00000360: 7c3a e2bd ba83 80be fa2f 543e 02f3 533e
00000370: aa21 49bd 4eb4 a7bd 3024 4a3e 09ca 223e
00000380: 33e1 acbd 012a 353e 78ff 1cbe 8021 eb3d
00000390: 58bf 423e 8c36 453e 7cee bebd 698f 81be
000003a0: 663e 47be d571 85bd bca2 2bbe 2d4d 033e
000003b0: a53a 94bc 466d ec3d 537d 9f3d f1db 8cbd
000003c0: 65a5 30be 54ab 143e 4d6b eb3d 5413 76be
000003d0: e627 b3bd fcc4 8d3d a556 cebc d78f 15be
000003e0: 138b 6e3e 3704 99bd 17db b6bd b978 653e
000003f0: 9f8e 62bd 153e 813c 1b1a 3e3e 0e02 163e

GNN3.bias f4 [16]
0.06311094 -0.19458693 -0.23022683 0.07780483 0.13616925 -0.13221128 -0.17142196 0.07016041
0.07214208 0.09317409 0.0003780513 -0.06723984 -0.16222426 0.10867647 -0.14775494 -0.20723121
00000000: 4f40 813d cc41 47be 95c0 6bbe 2458 9f3d
00000010: f46f 0b3e 6562 07be 3d89 2fbe 43b0 8f3d
00000020: 3abf 933d 0fd2 be3d 3035 c639 0bb5 89bd
00000030: 1e1e 26be c591 de3d 124d 17be 6b34 54be
