model/nrel_ignnk_sigmaA_cap_20210621.pth (torch, 162341 bytes, 6 tensors)

Theta1 f4 [48, 100]
0	0x3e258ac7	0.1616622
1	0x3f9f9a68	1.2468996
2	0xbd859129	-0.06521828
3	0xbd6ee68d	-0.05832534
4	0x3d98fb02	0.07469751
5	0x3ca9e2a6	0.020737957
6	0xc0f21b57	-7.5658374
7	0xbda897d5	-0.08232085
8	0xc0e6a5cd	-7.2077394
9	0xbda02d5a	-0.0782115
10	0x3e1fb781	0.15597345
11	0xbdd4d368	-0.10391885
12	0xbdf1e044	-0.118103534
13	0xbd447203	-0.047960293
14	0x3dcf93e8	0.10135633
15	0xbc199c85	-0.009375696
16	0x3cc85e96	0.024459165
17	0xbda95789	-0.08268649
18	0xbd798c34	-0.060924724
19	0xc0df0fbe	-6.9706717
20	0x3db029af	0.086017005
21	0x3e700626	0.23439845
22	0xc0d6610c	-6.6993465
23	0x3e154205	0.14575966
24	0xbd53cf85	-0.051711578
25	0xbd4555dc	-0.048177585
26	0x3cfd31a5	0.030907461
27	0xbd12c42e	-0.035831623
28	0x3dac0438	0.08399242
29	0xbd0b61a6	-0.03402867
30	0x3d114679	0.0354676
31	0x3dab608f	0.083680265
32	0x3d7194df	0.058979865
33	0x3d998be7	0.074973874
34	0x3dc1cf84	0.094634086
35	0x3dca77dd	0.09886143
36	0xbb971386	-0.0046104817
37	0x3cd329f2	0.025776837
38	0x3e30f728	0.17281783
39	0x3de32164	0.11090353
40	0xbd32605c	-0.043548927
41	0x3dc8d6d9	0.09806604
42	0x3dae29d9	0.085040756
43	0xbdd5f935	-0.10447923
44	0x3c5f7b66	0.01364026
45	0xbdb80e4e	-0.089871034
46	0xc0f2d2df	-7.588241
47	0xbe0c09dd	-0.13675638
48	0x3df85269	0.121250935
49	0x3ba20fa1	0.0049457108
50	0xc0d7ee32	-6.7478266
51	0x3e29c3bc	0.16578573
52	0x3dfbbc42	0.12291767
53	0x3e4fbf67	0.20287858
54	0xbdb375cf	-0.087627046
55	0x3ead03f1	0.3379207
56	0x3d30483a	0.04303763
57	0xbce4d976	-0.027935725
58	0xc0f98614	-7.797617
59	0x3d9c9b07	0.076467566
60	0x3d2f176a	0.04274694
61	0x3aa05a8d	0.0012234017
62	0x3d8cc645	0.068737544
63	0xc0bdd094	-5.931711
64	0xbdd60045	-0.1044927
65	0xbd55de8a	-0.052214183
66	0xbcf7b5b7	-0.030238016
67	0x3c6d81d3	0.014496285
68	0xbd28373c	-0.0410683
69	0xbe1404ff	-0.14455031
70	0xbe90c903	-0.2827836
71	0x3d5c94b1	0.05385274
72	0xbdc0b624	-0.094097406
73	0xbe406b57	-0.18790947
74	0xbf2675e6	-0.6502365
75	0x3e23508b	0.15948693
76	0xbde16d1c	-0.11007139
77	0x3d0e070c	0.03467469
78	0xbdbc06e9	-0.091810055
79	0x3dac7b94	0.08422008
80	0xbd82279f	-0.063552134
81	0x3ddbdd92	0.107356206
82	0xbd21bba5	-0.039485592
83	0x3cd5a49f	0.026079474
84	0xbcb81beb	-0.02247425
85	0x3dc9fe2e	0.09862934
86	0x3df68f38	0.120390356
87	0x3e1ea318	0.15491903
88	0x3c1f361e	0.009717492
89	0x3d722ed0	0.059126675
90	0x3d8944ce	0.067025766
91	0xc0f4bc7f	-7.64801
92	0x3d8c35a0	0.06846166
93	0x3ae17118	0.0017199842
94	0xbbd58763	-0.0065163835
95	0xbd57b61e	-0.052663915
96	0x3e5dfd6d	0.21678706
97	0xc0f3e895	-7.6221414
98	0x3ceb532f	0.028726188
99	0xbd563fd3	-0.05230696
100	0x3df0279a	0.117263034
101	0x3f894522	1.0724223
102	0x3d9ffd7e	0.07812022
103	0xbc82e7d3	-0.015979683
104	0x3deebb07	0.116567664
105	0xbd1b5c54	-0.037929848
106	0x3d8a57f0	0.06755054
107	0xbd93d9bf	-0.07219266
108	0x3c041fb8	0.008064203
109	0xbcfb7274	-0.030694224
110	0x3e0f7adb	0.1401171
111	0x3c0d0dbd	0.0086092325
112	0x3df89349	0.121374674
113	0xbce9155c	-0.028452568
114	0x3dbb18cc	0.09135589
115	0x3daf3235	0.08554498
116	0x3d2ed19f	0.04268038
117	0x3c3ff562	0.011716219
118	0xbc716325	-0.014733111
119	0xbde932e9	-0.113866635
120	0x3cdc5475	0.026895741
121	0x3de0ef80	0.10983181
122	0xbee64b32	-0.44979244
123	0x3aa7126b	0.0012746578
124	0xbd0aa40d	-0.033847857
125	0x3eade2c5	0.33962074
126	0xbbd09fa3	-0.0063666864
127	0xbd96ed13	-0.07369437
128	0xbeb74215	-0.35792604
129	0x3d817024	0.06320217
130	0xbda1ac58	-0.078942
131	0x3d9cf5be	0.07664059
132	0xbd42d890	-0.04756981
133	0x3c40d0ee	0.011768563
134	0x3d219e0f	0.039457377
135	0x3c04cce9	0.008105495
136	0x3cde7611	0.027155908
137	0x39e94ddd	0.00044499236
138	0xbc2fb2e8	-0.010723807
139	0xbd0e9bd2	-0.03481657
140	0x3d1e3cbb	0.038632136
141	0x3db2c896	0.08729665
142	0xbdc0a67a	-0.09406753
143	0x3dabc02b	0.083862625
144	0xbb6513b2	-0.0034954366
145	0xbda63339	-0.08115239
146	0x3d495720	0.049155354
147	0xbd34de90	-0.044157565
148	0xbd607748	-0.054801255
149	0xbd7e58aa	-0.062096275
150	0xbd50ba96	-0.050959192
151	0xbcdd4262	-0.027009193
152	0x3d8f3348	0.06992203
153	0xbc9d2fd0	-0.019187838
154	0xbe13e311	-0.14442088
155	0x3e783db6	0.24242291
156	0x3c0d40a6	0.00862137
157	0x3ca080ae	0.01959261
158	0x3d49dba8	0.049281746
159	0x3db5942c	0.08866152
160	0xbc138bf3	-0.009005534
161	0xbdd800e6	-0.10547046
162	0xbcf8c39c	-0.030366711
163	0x3dff71a8	0.1247285
164	0x3dc77e8b	0.09740933
165	0x3c99c89a	0.018772412
166	0x3dd6e166	0.1049221
167	0x3d8b5db8	0.06804985
168	0x3c6d575a	0.014486158
169	0xbd3d89f2	-0.046274133
170	0xbcd9c17a	-0.026581515
171	0x3c8ad7e6	0.016948652
172	0x3dc9ebd3	0.09859433
173	0x3db56135	0.088564314
174	0x3dd5771e	0.104231104
175	0x3cac362d	0.021021927
176	0x3e610e75	0.21978171
177	0x3d4942f8	0.049136132
178	0xbd575f64	-0.052581206
179	0x3d288d88	0.0411506
180	0x3d997332	0.07492675
181	0x3d38db4f	0.045131024
182	0x3d57cd67	0.05268612
183	0xbd2dc126	-0.04242053
184	0xbcdf9396	-0.027292054
185	0xbde22b6d	-0.11043439
186	0xba15fe5d	-0.0005721802
187	0x3caa433c	0.020784013
188	0xbdc19b16	-0.094534084
189	0xbc163138	-0.009167008
190	0xbd1f9c9e	-0.03896772
191	0xbdcfac16	-0.10140245
192	0x3dc0fd05	0.0942326
193	0xbc0c8c97	-0.008578441
194	0xbdf26dde	-0.11837362
195	0xbd00cc5a	-0.031444885
196	0x3dd8d4ab	0.10587438
197	0x3e181951	0.14853407
198	0xbdc88f87	-0.09793001
199	0x3ddf04ac	0.10889563
200	0xbd743d2a	-0.059628643
201	0x3f8124cd	1.0089356
202	0xbc8f905c	-0.01752489
203	0xbd9caacb	-0.07649764
204	0x3da5005d	0.0805671
205	0xbe1df0a1	-0.15423824
206	0x3dbba1b8	0.09161705
207	0xbd49046d	-0.049076486
208	0x3e0c9e69	0.13732304
209	0xbd5ce433	-0.053928565
210	0x3d70bcce	0.05877381
211	0xbe004bf2	-0.12528971
212	0x3dba70d3	0.09103551
213	0xbe2a7003	-0.16644292
214	0x3de105c4	0.10987428
215	0xbd25d44a	-0.040485658
216	0xbd46547f	-0.048420426
217	0xbb84b673	-0.00405007
218	0xbe2eb352	-0.17060593
219	0xbd0040d0	-0.03131181
220	0x3d745ecc	0.059660718
221	0x3e0445ce	0.12917253
222	0xbefb40aa	-0.49072772
223	0x3d3201e5	0.043458838
224	0x3ce23b9e	0.027616318
225	0x3ebda805	0.3704225
226	0xbc907cc6	-0.017637622
227	0x3c6ef5c2	0.01458496
228	0xbef04215	-0.46925417
229	0xbd08f931	-0.033440772
230	0xbdda1b90	-0.106497884
231	0xbdb5f82e	-0.08885227
232	0xbd19e27c	-0.037569508
233	0x3d299b68	0.041407973
234	0xbd2d3d63	-0.04229487
235	0xbbda48d8	-0.0066615157
236	0xbc9272ef	-0.01787707
237	0xbc80af1b	-0.015708497
238	0xbe24650d	-0.16054173
239	0x3d605c16	0.05477532
240	0x3e5a4f7d	0.21319385
241	0x3df67e2e	0.120357856
242	0x3d526e64	0.051374808
243	0x3d316c35	0.043316085
244	0x3ded98b9	0.11601395
245	0xbe0e651d	-0.13905759
246	0x3d89640c	0.067085356
247	0xbd27c984	-0.040963665
248	0xbc81b9fa	-0.01583575
249	0x3d51bdea	0.051206507
250	0x3d403f74	0.046935514
251	0xbc4e1623	-0.01257852
252	0x3d850200	0.06494522
253	0xbcb21f70	-0.021743506
254	0x3cafa3ba	0.021440376
255	0x3e1048b6	0.14090237

bias f4 [100]
0	0xbd62cda1	-0.055371884
1	0xba5f3838	-0.0008515152
2	0x3c5b1658	0.013372026
3	0xbdbdde27	-0.09270888
4	0xbc54829d	-0.012970594
5	0x3a3e7cfa	0.0007266548
6	0x3d9de8a8	0.07710391
7	0xbd451cd3	-0.048123192
8	0x3dbfaaf9	0.09358782
9	0x3d8b2370	0.067938685
10	0x3c5095ac	0.012730997
11	0xb9a80ffa	-0.0003205536
12	0x3dd93472	0.10605706
13	0x3dc466ca	0.09589918
14	0xbc47210a	-0.012153873
15	0xbd69cb49	-0.057078633
16	0x3d6f0f15	0.058363993
17	0x3c10a8df	0.0088293245
18	0x3de11208	0.10989767
19	0x3d854280	0.065068245
20	0xbe18add0	-0.14910054
21	0x3d7228d2	0.05912096
22	0x3d2930be	0.04130625
23	0xbe15905e	-0.14605853
24	0x3dd6cd7c	0.10488412
25	0x3a3e379e	0.00072562124
26	0x3e267091	0.16253878
27	0xbd31c05e	-0.043396346
28	0x3dd8ffbd	0.10595653
29	0xbd62bd77	-0.05535647
30	0x3da3f69c	0.080060214
31	0x3db1d7a9	0.08683712
32	0xbb7f4d9c	-0.003895617
33	0xbe8f3f92	-0.27978188
34	0xbe77d4dc	-0.24202293
35	0xbe761a1c	-0.24033397
36	0x3d6c4264	0.057680503
37	0x3dd25a51	0.10271133
38	0xbe01cc31	-0.12675549
39	0xbe8116e1	-0.25212768
40	0xbe3aecea	-0.18254438
41	0x3aef46c6	0.0018255345
42	0xbc845bd3	-0.016157066
43	0x3c82cea8	0.015967682
44	0x3de469f5	0.11153022
45	0xb9ea5916	-0.00044698332
46	0x3da69af4	0.08135024
47	0x3a1b9bbc	0.0005935987
48	0x3df4a6b7	0.11945861
49	0x3d92bb21	0.07164598
50	0x3db40bee	0.08791338
51	0xbe9eba4f	-0.31001517
52	0xbcd0c20f	-0.02548316
53	0xbe54b9f4	-0.2077406
54	0xbe6a365a	-0.22872296
55	0xba227c18	-0.0006198301
56	0x3ccaa439	0.02473651
57	0xbeca6045	-0.39526573
58	0x3db4a666	0.088208005
59	0x3dbd7c35	0.09252206
60	0xbdcc41d7	-0.099734955
61	0x3dd73afa	0.10509296
62	0xbbc37adb	-0.0059655732
63	0x3dd3cf78	0.10342306
64	0x3d450a20	0.04810536
65	0x3bd959cc	0.006633019
66	0xbb8eaa07	-0.004353765
67	0xbd9da46c	-0.076973766
68	0x3db1bf1e	0.08679031
69	0x3cba9f99	0.02278118
70	0xbd2cca25	-0.042184968
71	0xbd2f7439	-0.042835448
72	0xbcb0821a	-0.021546412
73	0x3d05d3b1	0.032672588
74	0xbe38456d	-0.17995234
75	0xbdd299b0	-0.1028322
76	0x3be27c34	0.006911779
77	0xbe1b6431	-0.15174939
78	0x3db3761a	0.087627605
79	0x3df2617a	0.118349984
80	0x3de2b33a	0.11069341
81	0x3db7aafb	0.08968159
82	0xbd974bc2	-0.073874965
83	0x3da4e469	0.08051378
84	0x3dd15fda	0.1022336
85	0x3d80b703	0.06284907
86	0xbe47f77e	-0.19528005
87	0xbddbc1dc	-0.10730335
88	0x3cff5174	0.03116677
89	0x3d5cd0a4	0.053909913
90	0xbd5ffd38	-0.054684848
91	0x3df4fa87	0.11961847
92	0x3cfe137d	0.031015152
93	0x3c9c83ea	0.01910587
94	0x3db1c537	0.08680194
95	0x3d8a013a	0.06738515
96	0xbc1ddb32	-0.00963478
97	0x3d4a0807	0.04932406
98	0x3daf324b	0.085545145
99	0x3d75ebde	0.060039394

Theta1 f4 [300, 100]
0	0xbe037524	-0.12837654
1	0xbd98af50	-0.07455313
2	0x3d45a2ae	0.048250847
3	0x3d48e98f	0.049050864
4	0xbce1d958	-0.027569458
5	0x3e07f6bc	0.13277715
6	0x3de8934f	0.11356222
7	0x3e3cc59e	0.1843476
8	0x3d8cf9e5	0.06883601
9	0x3f236d7d	0.6383894
10	0x3cf8364b	0.030299326
11	0xbde80824	-0.11329678
12	0xbd027020	-0.031845212
13	0xbd9dfbea	-0.077140644
14	0xbd4c688d	-0.049904395
15	0x3d9fcbbd	0.07802532
16	0x3d07a2a9	0.03311411
17	0xbdb6d557	-0.0892741
18	0x3e0b5705	0.13607414
19	0xbce58cdb	-0.028021267
20	0xbb805acf	-0.003917075
21	0xbe05950d	-0.1304514
22	0x3d971ccd	0.0737854
23	0x3d35a1ed	0.044343878
24	0xbd9e9394	-0.07742992
25	0xbd9c7d24	-0.07641056
26	0xbe94719d	-0.2899293
27	0xbe7c336d	-0.24628992
28	0x3d62abc4	0.05533959
29	0xbd19ade9	-0.03751937
30	0xbe3c0352	-0.18360642
31	0xbd3f87d1	-0.046760384
32	0xbdb1f339	-0.08688969
33	0xbc0f1415	-0.008732815
34	0xbd8ec5a2	-0.06971289
35	0x3dd79eb9	0.10528321
36	0xbee76c08	-0.4519961
37	0xba66a908	-0.00087989913
38	0xbde631b8	-0.11239952
39	0x3cee9ec2	0.029128436
40	0x3db26009	0.087097235
41	0xbd91c6d4	-0.071180016
42	0xbeca346d	-0.39493123
43	0x3d6933bc	0.056934103
44	0xbd505c33	-0.050869178
45	0x3d422d7c	0.04740666
46	0xbcd65906	-0.026165497
47	0x3de12dc4	0.10995057
48	0xbd6dffd7	-0.058105316
49	0x3df7ab2a	0.12093194
50	0xbd1a7a3d	-0.03771423
51	0xbbb45903	-0.005503775
52	0xbd89e332	-0.06732787
53	0xbc1f5238	-0.009724192
54	0xbcb461cd	-0.022019291
55	0x3d959a80	0.07304859
56	0xbf8d2575	-1.1027056
57	0xbdcd7769	-0.10032541
58	0xbec85093	-0.39123973
59	0xbd920828	-0.07130462
60	0x3d8e3ec5	0.06945566
61	0x3cdc9b3e	0.026929494
62	0x3d147265	0.036241908
63	0x3d01a81f	0.031654473
64	0x3d87f4f5	0.06638519
65	0xbe835d59	-0.25657156
66	0xbc467fb4	-0.012115408
67	0xbca8bc56	-0.020597618
68	0xbe125ce0	-0.14293242
69	0xbb4d94af	-0.003136914
70	0xbe2c620d	-0.16834278
71	0xbbc07d1a	-0.0058742883
72	0xbe6261eb	-0.22107665
73	0xbe1456a9	-0.14486183
74	0xbe65f5aa	-0.22456995
75	0x3d1bb31d	0.038012613
76	0x3d8684c2	0.0656829
77	0xbe310db6	-0.17290387
78	0xbe37049e	-0.17872855
79	0xbd35c516	-0.04437741
80	0x3d391725	0.045188088
81	0x3d3f5f77	0.0467219
82	0x3db2ed3d	0.08736656
83	0x3c57a3e8	0.013161637
84	0xbd2ab3ca	-0.041675366
85	0xbd9180ba	-0.07104631
86	0x3c7541ce	0.014969302
87	0xbe25721a	-0.16156808
88	0x3c57a8ee	0.013162835
89	0xbc05e89a	-0.008173132
90	0xbea8ed07	-0.32993338
91	0xbecf6445	-0.40506187
92	0x3d95c62e	0.073131904
93	0x3c0f9fb4	0.008766104
94	0xbdb56db1	-0.088588126
95	0x3c066cda	0.008204663
96	0x3c835c11	0.016035112
97	0x3d25b9bc	0.040460333
98	0xbf334047	-0.70019954
99	0x3da309a8	0.07960826
100	0xbde84f64	-0.113432676
101	0xbdba2c81	-0.0909052
102	0xbc5f9342	-0.013645949
103	0x3cd8fb14	0.02648691
104	0xbd36ed90	-0.04466015
105	0xbd60aa32	-0.05484981
106	0x3d81273d	0.06306312
107	0xbc2cdd8d	-0.010550869
108	0x3cebb733	0.02877388
109	0xbf0be24c	-0.54642177
110	0x3ce163d9	0.027513431
111	0x3dd71254	0.10501543
112	0xbd28952a	-0.04115788
113	0x3dae6d99	0.08516998
114	0x3d213b65	0.039363284
115	0xbd9c9218	-0.07645053
116	0xbd414481	-0.04718447
117	0x3b190a6b	0.0023352157
118	0x3cc1f83e	0.023677941
119	0xbdb26b39	-0.08711857
120	0x3d7750e5	0.06037988
121	0x3d3b3507	0.045704868
122	0xbd8edaad	-0.06975303
123	0xbcc7e931	-0.024403187
124	0x3e70c669	0.23513187
125	0x3e5b0875	0.21389945
126	0xbd711092	-0.058853693
127	0x3e0c7f2c	0.13720387
128	0x3d279313	0.040911745
129	0xbd08299c	-0.033242807
130	0xbe9ee5b2	-0.3103462
131	0x3cfe3dab	0.031035265
132	0x3a0f4949	0.00054659374
133	0xbb99c223	-0.0046923324
134	0x3d8176ab	0.06321462
135	0x3dc8e86c	0.09809956
136	0x3e1152d8	0.14191759
137	0x3cd04495	0.025423327
138	0x3cb5e8b3	0.022205686
139	0x3d90632a	0.07050164
140	0xbaff3dda	-0.0019473389
141	0xbd56aa35	-0.052408416
142	0xbb9ac7db	-0.0047235317
143	0x3cd8c251	0.026459845
144	0xbd85aeed	-0.06527505
145	0x3d931c80	0.0718317
146	0xbf37e196	-0.7182859
147	0x3d8c8eca	0.06863172
148	0xbc56d505	-0.013112311
149	0xbce3edc5	-0.027823338
150	0x3d70f2ce	0.058825307
151	0x3c734f48	0.014850445
152	0x3cd4c4fe	0.02597284
153	0x3adf6761	0.0017044359
154	0x3da3af1f	0.07992386
155	0xbc2e6f60	-0.010646671
156	0x3df973b6	0.12180273
157	0xbdc2e645	-0.09516577
158	0x3df520a5	0.11969117
159	0xbd885341	-0.066565044
160	0x3d399506	0.045308135
161	0xbd33a517	-0.043858614
162	0xbd7345fd	-0.059392918
163	0x3c030d53	0.007998782
164	0x3ad9c583	0.0016614649
165	0xbebcbf6c	-0.36864793
166	0x3c860a36	0.01636229
167	0xbd472a75	-0.048624475
168	0xbd364551	-0.0444997
169	0xc041508b	-3.020541
170	0xc016181c	-2.3452215
171	0x3d35a25f	0.044344302
172	0x3da18226	0.07886152
173	0x3d3742b0	0.044741333
174	0xbd8ec104	-0.069704086
175	0xbc5ea321	-0.013588698
176	0xbd55ff9b	-0.052245717
177	0x3ded1164	0.115755826
178	0x3cea4df0	0.028601617
179	0xbce4681e	-0.027881678
180	0x3dfeacd1	0.12435306
181	0x3d6eb9d5	0.058282692
182	0xbd9ae75e	-0.07563661
183	0xbd160b91	-0.036632124
184	0x3da4b032	0.08041419
185	0x3a85fcf5	0.0010222482
186	0xbd8c7bdd	-0.068595625
187	0x3dacf424	0.08445004
188	0xbbbd03d3	-0.005768278
189	0x3d6b5ff7	0.057464566
190	0x3e3c051e	0.18361327
191	0x3e040aa4	0.12894684
192	0x3ca3d2c3	0.01999796
193	0xbed35e84	-0.41283047
194	0xbdf6731d	-0.12033675
195	0xbd98e627	-0.07465773
196	0x3cd53e76	0.02603076
197	0xbd8d224b	-0.068913065
198	0x3e434e01	0.19072725
199	0xbd49f112	-0.04930217
200	0x3d648ee7	0.055800345
201	0xbb9f10f3	-0.0048543154
202	0x3d84836d	0.0647038
203	0xbd91f46d	-0.07126699
204	0x3d81b93a	0.06334157
205	0xbcf492f9	-0.029855238
206	0xbc718f88	-0.014743693
207	0x3e0ec558	0.13942468
208	0x3cf5c18d	0.029999519
209	0xbee533cf	-0.4476609
210	0xbccf2a15	-0.025288621
211	0xbd40e67d	-0.04709481
212	0xbc183923	-0.009290966
213	0x3db87067	0.09005814
214	0xbbbd5116	-0.0057774885
215	0x3dad65c2	0.084666744
216	0x3c0cf23a	0.008602673
217	0xbb0106ab	-0.0019687812
218	0x3dbfa7b1	0.093581565
219	0xbd746500	-0.059666634
220	0xbd018c6e	-0.031628065
221	0xbd835247	-0.064121775
222	0xbd91183a	-0.07084699
223	0xbc9da651	-0.019244345
224	0x3e7675a3	0.24068312
225	0x3e3a86e9	0.18215527
226	0xbe1685b6	-0.14699444
227	0x3dfaf948	0.12254578
228	0xbdabf492	-0.083962575
229	0x3d04db2b	0.032435577
230	0xbed3b138	-0.41346145
231	0x3d04d028	0.032425076
232	0xbd21fe13	-0.039548945
233	0xbd80a444	-0.06281331
234	0xbb2c825b	-0.0026322815
235	0x3bb8c451	0.005638637
236	0x3e053608	0.13008893
237	0x3d38f8b7	0.045159068
238	0xbdb81c24	-0.089897424
239	0x3d81909c	0.0632641
240	0x3d929210	0.071567655
241	0x3d4d930d	0.050189067
242	0xbc6105fc	-0.013734337
243	0xbd11832b	-0.035525482
244	0x3d990d3f	0.074732296
245	0x3bdc065b	0.006714625
246	0xbf185109	-0.5949865
247	0x3ce81ae6	0.028333139
248	0xbd59a8bb	-0.05313943
249	0x3df245b1	0.11829699
250	0x3c8538ff	0.01626253
251	0x3daaaeaf	0.083340995
252	0xbc54a24a	-0.012978146
253	0xbca4903d	-0.02008831
254	0x3db7bf2f	0.08972012
255	0xbbd80593	-0.0065924614

bias f4 [100]
0	0x3d88db0f	0.06682407
1	0xbcfb6c68	-0.03069134
2	0x3cfeca70	0.03110239
3	0x3cbc983e	0.023021813
4	0xbd4053cc	-0.046954915
5	0xbdad8a85	-0.08473686
6	0x3d3dc811	0.046333376
7	0xbd288fe3	-0.041152846
8	0x3ddfeafc	0.109334916
9	0x3d159943	0.036523115
10	0xbd197976	-0.03746935
11	0x3d981c17	0.07427233
12	0xbd05ba88	-0.032648593
13	0xbd33d105	-0.04390051
14	0xbc9494dc	-0.018137388
15	0xbdb7c0f2	-0.08972348
16	0x3a7e6355	0.00097041327
17	0xbd078908	-0.033089668
18	0x3d744ef1	0.059645597
19	0x3d501de4	0.050809756
20	0x3d61cfd9	0.05512986
21	0x3de2ad7e	0.11068247
22	0xbdb86893	-0.09004321
23	0xbcc8e36d	-0.024522508
24	0x3d984057	0.07434147
25	0x3d31e617	0.04343232
26	0xbd49e8ce	-0.049294285
27	0x3da0c37b	0.07849785
28	0x3db279ff	0.08714675
29	0x3b88ddf2	0.0041768486
30	0xbdd0a067	-0.10186844
31	0x3c62cde7	0.013843036
32	0x3c0a5713	0.008443612
33	0xbc939d77	-0.018019421
34	0xbdbb16e6	-0.09135227
35	0xbd9a6277	-0.07538312
36	0xbd2048e6	-0.03913202
37	0xbc4674c3	-0.012112799
38	0xbd976b5f	-0.07393526
39	0x3d52bfe8	0.051452547
40	0x3d87df79	0.06634421
41	0x3ba996a3	0.005175428
42	0x3d901f24	0.070371896
43	0x3ab8bd80	0.0014094561
44	0xbd1d7843	-0.03844477
45	0xbcdf379f	-0.027248202
46	0x3dd66c4c	0.10469875
47	0x3d957fe3	0.07299783
48	0x3d2f4d23	0.042798173
49	0xbd9fb905	-0.077989615
50	0xbbac45ac	-0.005257329
51	0x3d7e3c7c	0.0620694
52	0x3d26fc9a	0.040768243
53	0xbc82c427	-0.015962673
54	0x3d723d98	0.05914077
55	0x3db0dfbe	0.086364254
56	0x3dc22d9b	0.09481355
57	0x3d745bc4	0.059657827
58	0x3d49cb1b	0.049265962
59	0xbd66927f	-0.056292053
60	0xbd862e69	-0.06551821
61	0x3d240dff	0.04005241
62	0xbca3905c	-0.019966297
63	0x3d68c0f4	0.05682464
64	0xbdbe88a2	-0.093034044
65	0x3e0753e4	0.13215595
66	0x3c4bc27c	0.012436505
67	0xbcd2ad7f	-0.025717495
68	0x3bd078b6	0.006362046
69	0x3d130267	0.035890963
70	0x3dbd77ab	0.092513405
71	0xbd6e802f	-0.058227714
72	0xbc088ba3	-0.008334073
73	0x3d59d575	0.053182084
74	0xbdd60a41	-0.104511745
75	0x3d54d915	0.051964838
76	0xbcf22a9d	-0.029561335
77	0x3dad2f6b	0.0845631
78	0xbd995f43	-0.07488873
79	0x3be52c1e	0.0069937846
80	0x3d9100b0	0.07080209
81	0x3d2a0964	0.04151286
82	0x3d2ff631	0.042959396
83	0xbcadb54c	-0.021204613
84	0xbd306ef4	-0.043074563
85	0xbdbf0878	-0.09327787
86	0xbdbd9a16	-0.09257905
87	0x3d730c24	0.05933775
88	0xba8d1ad1	-0.0010765438
89	0xbdca3f35	-0.09875337
90	0x3c8345f5	0.016024569
91	0x3d2fa9a8	0.042886406
92	0x3d40cea2	0.04707206
93	0x3dae1179	0.084994264
94	0xbd5d8147	-0.054078367
95	0xbd70991a	-0.05873976
96	0x3d1b2a4b	0.03788213
97	0x3d2bd174	0.041947797
98	0x3de8c069	0.11364824
99	0x3dda2169	0.10650904

Theta1 f4 [300, 16]
0	0xbc00346c	-0.007824998
1	0xbd392013	-0.045196604
2	0x3e1df7f3	0.15426616
3	0x3da94bb9	0.08266396
4	0xbd4f9deb	-0.05068771
5	0x3c988fd9	0.01862328
6	0x3e51b1be	0.2047796
7	0x3daf4207	0.085575156
8	0xbe0c8aab	-0.13724773
9	0xbd6c67d6	-0.057716213
10	0xbd8cb624	-0.06870678
11	0x3d7a8f6b	0.06117193
12	0xbe88c4c0	-0.26712608
13	0xbe574a63	-0.2102447
14	0xbddec149	-0.1087671
15	0xbdf1ddff	-0.118099205
16	0xbe8a7125	-0.27039447
17	0x3e23347f	0.15937994
18	0xbe05399a	-0.13010255
19	0x3e5704ab	0.20997874
20	0x3d8e622b	0.06952318
21	0x3d943ae1	0.07237793
22	0xbe5e472b	-0.21706836
23	0xbe4feca8	-0.20305121
24	0x3e1931d1	0.1496041
25	0x3e18a0a4	0.1490503
26	0x3d5e2fdc	0.05424486
27	0xbd60ab27	-0.054850724
28	0x3e694fa7	0.22784291
29	0xbdb045fd	-0.08607099
30	0x3e765906	0.24057397
31	0x3d111a37	0.03542539
32	0x3dd0772d	0.10178981
33	0x3e0522b7	0.13001524
34	0xbe40e258	-0.18836343
35	0xbc9872af	-0.018609373
36	0xbe17b14c	-0.14813727
37	0xbe2c12ef	-0.16804098
38	0x3dec08af	0.11525094
39	0x3db69e16	0.08916871
40	0xbe1e7445	-0.15474041
41	0xbdb09b0b	-0.08623322
42	0xbe019d32	-0.12657622
43	0xbca6bda9	-0.020354109
44	0xbd50602d	-0.05087297
45	0x3d93662f	0.07197224
46	0x3dde46d0	0.1085335
47	0xbe6a0bfc	-0.22856134
48	0xbe7e004d	-0.24804802
49	0x3e5373ee	0.20649692
50	0x3c1f7d92	0.009734528
51	0xbe59f2a5	-0.21283968
52	0x3b1cf36f	0.0023948809
53	0x3da841c5	0.082156695
54	0xbdc9c53b	-0.09852072
55	0xbdef0f50	-0.116728425
56	0x3d07f85a	0.03319583
57	0xbd9a5ae7	-0.075368695
58	0x3dc8b72f	0.098005645
59	0x3db33f20	0.087522745
60	0x3e0deaeb	0.13859145
61	0x3d05b7c7	0.032645967
62	0xbd107fb6	-0.035278045
63	0xbe2c335b	-0.16816466
64	0xbe7e9511	-0.24861552
65	0xbe604cfb	-0.21904366
66	0x3e493478	0.19648921
67	0xbdbb2e45	-0.091396846
68	0xbd4a315f	-0.04936349
69	0xbe1cebdc	-0.15324348
70	0xbd5e94ed	-0.054341245
71	0xbc51d9d9	-0.012808287
72	0xbd7ed37a	-0.0622134
73	0x3e608306	0.21924981
74	0x3e03bdc3	0.12865357
75	0x3e2b581a	0.16732827
76	0xbe44a96e	-0.19205257
77	0xbe1e9536	-0.15486607
78	0x3e2dc450	0.16969419
79	0x3da135ee	0.078716144
80	0x3d8bdac3	0.06828835
81	0xbdcf87cc	-0.10133323
82	0x3d555e1f	0.052091714
83	0xbe0ef476	-0.13960442
84	0xbe11dbec	-0.1424405
85	0xbd71cbf6	-0.059032403
86	0x3c8b25ae	0.01698574
87	0xbe5359d9	-0.20639743
88	0x3e1e1bac	0.15440243
89	0xbe0cff08	-0.13769162
90	0xbcc1c1d6	-0.023651998
91	0xbd9759ea	-0.073901966
92	0x3e236432	0.1595619
93	0xbdf05ac2	-0.11736061
94	0x3dead40d	0.11466227
95	0xbd22cb6d	-0.039744783
96	0xbc175245	-0.009235923
97	0x3dcd95c2	0.1003833
98	0xbdcd4eac	-0.10024771
99	0xbd872183	-0.06598189
100	0x3e0bdc77	0.1365832
101	0x3dfbc50c	0.12293443
102	0x3e871627	0.26384088
103	0xbe149dee	-0.1451337
104	0x3da5addf	0.08089804
105	0x3e4d27c2	0.20034698
106	0x3dbf174a	0.09330614
107	0xbe8cc259	-0.27492025
108	0x3dc491ac	0.09598097
109	0x3e2adb4d	0.16685219
110	0x3e74f1ee	0.23920414
111	0xbe095ba5	-0.13413866
112	0xbbb3f8d7	-0.0054923105
113	0xbdc4fc18	-0.096183956
114	0xbdb2ea0a	-0.08736046
115	0xbe2af1b4	-0.16693765
116	0x3e3626a6	0.1778818
117	0xbc811d6c	-0.0157611
118	0x3d6ba9f6	0.057535134
119	0xbe5abb85	-0.21360596
120	0xbe5c78bc	-0.21530432
121	0xbe0641b9	-0.13111009
122	0x3d3fdc13	0.04684074
123	0x3e049090	0.12945771
124	0xbe6d48c3	-0.23172288
125	0x3d08fbea	0.03344337
126	0x3d39c50c	0.045353934
127	0x3e3b15dd	0.18270059
128	0xbe4c39c1	-0.19943906
129	0xbe036a6f	-0.1283357
130	0x3e0b25f7	0.13588701
131	0xbe6f6f90	-0.23382401
132	0xbdc7150d	-0.09720812
133	0x3e03b7f1	0.12863137
134	0x3cf1fc02	0.029539112
135	0xbe00c675	-0.12575705
136	0x3e0253de	0.12727305
137	0x3e0495db	0.1294779
138	0x3e1a5af4	0.15073758
139	0x3e4f3d3e	0.20238206
140	0x3e32179f	0.17391823
141	0x3b645816	0.0034842542
142	0xbd440986	-0.047860645
143	0xbd548f33	-0.051894378
144	0x3e4e0671	0.20119645
145	0x3e8686e2	0.26274782
146	0x3e5e9664	0.21737057
147	0x3e30b804	0.17257696
148	0x3eed3053	0.4632593
149	0x3e342623	0.17592673
150	0x3dbf978a	0.09355076
151	0x3e991793	0.29900798
152	0xbdffaed2	-0.12484516
153	0xbd1d0c60	-0.03834188
154	0xbcedb6fc	-0.029017918
155	0x3e0f8665	0.14016111
156	0x3e641fff	0.2227783
157	0xbe07f606	-0.13277444
158	0xbe614f47	-0.22002898
159	0xbe9b1dc6	-0.30296153
160	0x3e30f640	0.17281437
161	0xbd42cb98	-0.047557443
162	0x3d6ea56a	0.05826322
163	0x3dee69d0	0.11641276
164	0x3c1f37bb	0.009717877
165	0xbe008d12	-0.12553814
166	0xbdcd154b	-0.10013827
167	0xbda9b812	-0.08287062
168	0x3e14ce5d	0.14531846
169	0x3d6a37d8	0.057182163
170	0xbdb4a6d2	-0.08820881
171	0x3d3180a7	0.043335583
172	0xbe812f3a	-0.25231344
173	0xbe3d84f8	-0.18507755
174	0x3e632877	0.22183405
175	0x3e33905f	0.17535542
176	0x3e3d8d1c	0.1851086
177	0xbe3add2a	-0.1824843
178	0x3d6470c6	0.05577161
179	0xbddf16c0	-0.10893011
180	0xbcc5e205	-0.024155626
181	0xbd05bce5	-0.032650847
182	0x3e0844af	0.1330745
183	0xbe6728e0	-0.22574186
184	0xba14f9a6	-0.00056829525
185	0x3d397c5e	0.04528462
186	0xbdd93176	-0.10605137
187	0xbe430991	-0.19046618
188	0x3d2d8bb9	0.042369578
189	0x3e60c116	0.21948656
190	0xbddd73dc	-0.10813114
191	0xbe70c353	-0.2351201
192	0x3e19a726	0.15005168
193	0xbd46f358	-0.048571914
194	0x3e1331d2	0.14374474
195	0xbd9e5274	-0.077305704
196	0xbd434869	-0.047676478
197	0x3e034d48	0.12822449
198	0x3e96c8ee	0.29450172
199	0xbd97faac	-0.07420859
200	0x3dcd02a8	0.10010272
201	0x3e94d82d	0.2907118
202	0x3e59d5de	0.2127299
203	0x3e6fd238	0.23420036
204	0xbde1c706	-0.11024289
205	0xbe50cca6	-0.20390567
206	0xbe0479d3	-0.12937097
207	0xbe0b74af	-0.1361873
208	0xbe32ff3b	-0.17480175
209	0xbda59c56	-0.08086459
210	0xbd504bae	-0.050853424
211	0x3cec83ac	0.02887138
212	0x3e33433b	0.17506115
213	0x3e363856	0.17794928
214	0x3c7843ca	0.015152881
215	0x3e5dfa94	0.21677619
216	0x3e0cddfe	0.13756558
217	0x3cb7a05c	0.022415332
218	0xbdcec025	-0.100952424
219	0x3e5c8766	0.21536025
220	0xbd630630	-0.055425823
221	0x3d9f6e28	0.077846825
222	0x3c4c471b	0.012468125
223	0x3e85a4a3	0.2610217
224	0x3d01da53	0.03170235
225	0xbe317040	-0.17327976
226	0x3e0f10e5	0.13971289
227	0xbcd6a20e	-0.02620032
228	0x3e0d4073	0.13794117
229	0x3e18381c	0.14865154
230	0x3dbd29bb	0.09236475
231	0xbda83d3c	-0.082148045
232	0x3de0a881	0.109696396
233	0x3e1e6796	0.15469202
234	0x3d72b6a4	0.05925621
235	0xbde9aff4	-0.114105135
236	0x3dd45181	0.10367108
237	0x3e83e620	0.2576151
238	0x3cbd8d07	0.023138536
239	0xbd7f8481	-0.062382225
240	0xbdaac445	-0.08338217
241	0xbde4b142	-0.11166622
242	0x3dd67366	0.10471229
243	0x3e2db361	0.16962959
244	0x3e0ade02	0.13561252
245	0xbd518d9e	-0.051160447
246	0xbd922a06	-0.071369216
247	0x3b0fb551	0.0021928141
248	0x3e71e618	0.2362293
249	0xbc47011e	-0.012146262
250	0x3e67cebd	0.22637458
251	0x3d3429bd	0.043985117
252	0x3d08f7fb	0.033439618
253	0x3d308e5f	0.043104526
254	0xbdfe69c2	-0.124225155
255	0x3eb31c04	0.34982312

bias f4 [16]
0	0x3d69c5f3	0.057073545
1	0x3d8dc8fe	0.06923102
2	0x3e4d2019	0.20031776
3	0x3dfffd30	0.124994636
4	0xbcc4902c	-0.023994528
5	0x3dd41e2b	0.103573166
6	0xbd122609	-0.035680804
7	0xbd8328c3	-0.06404259
8	0xbd63336a	-0.055468954
9	0xbe5c0fdb	-0.21490423
10	0xbd911ad8	-0.07085198
11	0xbdd8625d	-0.10565636
12	0x3d6b5019	0.057449434
13	0x3d769df1	0.06020922
14	0xbdff4a0b	-0.124652945
15	0x3e8053d1	0.25063947
